{"backend": "tensorflow", "keras_version": "2.1.1", "config": {"name": "model_1", "layers": [{"name": "input_1", "config": {"batch_input_shape": [null, 473, 473, 3], "name": "input_1", "dtype": "float32", "sparse": false}, "class_name": "InputLayer", "inbound_nodes": []}, {"name": "conv1_1_3x3_s2", "config": {"kernel_regularizer": null, "bias_initializer": {"config": {}, "class_name": "Zeros"}, "name": "conv1_1_3x3_s2", "bias_regularizer": null, "kernel_size": [3, 3], "filters": 64, "activity_regularizer": null, "use_bias": false, "bias_constraint": null, "dilation_rate": [1, 1], "kernel_constraint": null, "padding": "same", "data_format": "channels_last", "trainable": true, "activation": "linear", "kernel_initializer": {"config": {"seed": null, "distribution": "uniform", "scale": 1.0, "mode": "fan_avg"}, "class_name": "VarianceScaling"}, "strides": [2, 2]}, "class_name": "Conv2D", "inbound_nodes": [[["input_1", 0, 0, {}]]]}, {"name": "conv1_1_3x3_s2_bn", "config": {"center": true, "beta_regularizer": null, "axis": -1, "name": "conv1_1_3x3_s2_bn", "epsilon": 1e-05, "scale": true, "gamma_constraint": null, "moving_variance_initializer": {"config": {}, "class_name": "Ones"}, "gamma_initializer": {"config": {}, "class_name": "Ones"}, "beta_constraint": null, "momentum": 0.95, "moving_mean_initializer": {"config": {}, "class_name": "Zeros"}, "beta_initializer": {"config": {}, "class_name": "Zeros"}, "trainable": true, "gamma_regularizer": null}, "class_name": "BatchNormalization", "inbound_nodes": [[["conv1_1_3x3_s2", 0, 0, {}]]]}, {"name": "activation_1", "config": {"trainable": true, "name": "activation_1", "activation": "relu"}, "class_name": "Activation", "inbound_nodes": [[["conv1_1_3x3_s2_bn", 0, 0, {}]]]}, {"name": "conv1_2_3x3", "config": {"kernel_regularizer": null, "bias_initializer": {"config": {}, "class_name": "Zeros"}, "name": "conv1_2_3x3", "bias_regularizer": null, "kernel_size": [3, 3], "filters": 64, "activity_regularizer": null, "use_bias": false, "bias_constraint": null, "dilation_rate": [1, 1], "kernel_constraint": null, "padding": "same", "data_format": "channels_last", "trainable": true, "activation": "linear", "kernel_initializer": {"config": {"seed": null, "distribution": "uniform", "scale": 1.0, "mode": "fan_avg"}, "class_name": "VarianceScaling"}, "strides": [1, 1]}, "class_name": "Conv2D", "inbound_nodes": [[["activation_1", 0, 0, {}]]]}, {"name": "conv1_2_3x3_bn", "config": {"center": true, "beta_regularizer": null, "axis": -1, "name": "conv1_2_3x3_bn", "epsilon": 1e-05, "scale": true, "gamma_constraint": null, "moving_variance_initializer": {"config": {}, "class_name": "Ones"}, "gamma_initializer": {"config": {}, "class_name": "Ones"}, "beta_constraint": null, "momentum": 0.95, "moving_mean_initializer": {"config": {}, "class_name": "Zeros"}, "beta_initializer": {"config": {}, "class_name": "Zeros"}, "trainable": true, "gamma_regularizer": null}, "class_name": "BatchNormalization", "inbound_nodes": [[["conv1_2_3x3", 0, 0, {}]]]}, {"name": "activation_2", "config": {"trainable": true, "name": "activation_2", "activation": "relu"}, "class_name": "Activation", "inbound_nodes": [[["conv1_2_3x3_bn", 0, 0, {}]]]}, {"name": "conv1_3_3x3", "config": {"kernel_regularizer": null, "bias_initializer": {"config": {}, "class_name": "Zeros"}, "name": "conv1_3_3x3", "bias_regularizer": null, "kernel_size": [3, 3], "filters": 128, "activity_regularizer": null, "use_bias": false, "bias_constraint": null, "dilation_rate": [1, 1], "kernel_constraint": null, "padding": "same", "data_format": "channels_last", "trainable": true, "activation": "linear", "kernel_initializer": {"config": {"seed": null, "distribution": "uniform", "scale": 1.0, "mode": "fan_avg"}, "class_name": "VarianceScaling"}, "strides": [1, 1]}, "class_name": "Conv2D", "inbound_nodes": [[["activation_2", 0, 0, {}]]]}, {"name": "conv1_3_3x3_bn", "config": {"center": true, "beta_regularizer": null, "axis": -1, "name": "conv1_3_3x3_bn", "epsilon": 1e-05, "scale": true, "gamma_constraint": null, "moving_variance_initializer": {"config": {}, "class_name": "Ones"}, "gamma_initializer": {"config": {}, "class_name": "Ones"}, "beta_constraint": null, "momentum": 0.95, "moving_mean_initializer": {"config": {}, "class_name": "Zeros"}, "beta_initializer": {"config": {}, "class_name": "Zeros"}, "trainable": true, "gamma_regularizer": null}, "class_name": "BatchNormalization", "inbound_nodes": [[["conv1_3_3x3", 0, 0, {}]]]}, {"name": "activation_3", "config": {"trainable": true, "name": "activation_3", "activation": "relu"}, "class_name": "Activation", "inbound_nodes": [[["conv1_3_3x3_bn", 0, 0, {}]]]}, {"name": "max_pooling2d_1", "config": {"pool_size": [3, 3], "name": "max_pooling2d_1", "padding": "same", "data_format": "channels_last", "trainable": true, "strides": [2, 2]}, "class_name": "MaxPooling2D", "inbound_nodes": [[["activation_3", 0, 0, {}]]]}, {"name": "activation_4", "config": {"trainable": true, "name": "activation_4", "activation": "relu"}, "class_name": "Activation", "inbound_nodes": [[["max_pooling2d_1", 0, 0, {}]]]}, {"name": "conv2_1_1x1_reduce", "config": {"kernel_regularizer": null, "bias_initializer": {"config": {}, "class_name": "Zeros"}, "name": "conv2_1_1x1_reduce", "bias_regularizer": null, "kernel_size": [1, 1], "filters": 64, "activity_regularizer": null, "use_bias": false, "bias_constraint": null, "dilation_rate": [1, 1], "kernel_constraint": null, "padding": "valid", "data_format": "channels_last", "trainable": true, "activation": "linear", "kernel_initializer": {"config": {"seed": null, "distribution": "uniform", "scale": 1.0, "mode": "fan_avg"}, "class_name": "VarianceScaling"}, "strides": [1, 1]}, "class_name": "Conv2D", "inbound_nodes": [[["activation_4", 0, 0, {}]]]}, {"name": "conv2_1_1x1_reduce_bn", "config": {"center": true, "beta_regularizer": null, "axis": -1, "name": "conv2_1_1x1_reduce_bn", "epsilon": 1e-05, "scale": true, "gamma_constraint": null, "moving_variance_initializer": {"config": {}, "class_name": "Ones"}, "gamma_initializer": {"config": {}, "class_name": "Ones"}, "beta_constraint": null, "momentum": 0.95, "moving_mean_initializer": {"config": {}, "class_name": "Zeros"}, "beta_initializer": {"config": {}, "class_name": "Zeros"}, "trainable": true, "gamma_regularizer": null}, "class_name": "BatchNormalization", "inbound_nodes": [[["conv2_1_1x1_reduce", 0, 0, {}]]]}, {"name": "activation_5", "config": {"trainable": true, "name": "activation_5", "activation": "relu"}, "class_name": "Activation", "inbound_nodes": [[["conv2_1_1x1_reduce_bn", 0, 0, {}]]]}, {"name": "zero_padding2d_1", "config": {"data_format": "channels_last", "trainable": true, "name": "zero_padding2d_1", "padding": [[1, 1], [1, 1]]}, "class_name": "ZeroPadding2D", "inbound_nodes": [[["activation_5", 0, 0, {}]]]}, {"name": "conv2_1_3x3", "config": {"kernel_regularizer": null, "bias_initializer": {"config": {}, "class_name": "Zeros"}, "name": "conv2_1_3x3", "bias_regularizer": null, "kernel_size": [3, 3], "filters": 64, "activity_regularizer": null, "use_bias": false, "bias_constraint": null, "dilation_rate": [1, 1], "kernel_constraint": null, "padding": "valid", "data_format": "channels_last", "trainable": true, "activation": "linear", "kernel_initializer": {"config": {"seed": null, "distribution": "uniform", "scale": 1.0, "mode": "fan_avg"}, "class_name": "VarianceScaling"}, "strides": [1, 1]}, "class_name": "Conv2D", "inbound_nodes": [[["zero_padding2d_1", 0, 0, {}]]]}, {"name": "conv2_1_3x3_bn", "config": {"center": true, "beta_regularizer": null, "axis": -1, "name": "conv2_1_3x3_bn", "epsilon": 1e-05, "scale": true, "gamma_constraint": null, "moving_variance_initializer": {"config": {}, "class_name": "Ones"}, "gamma_initializer": {"config": {}, "class_name": "Ones"}, "beta_constraint": null, "momentum": 0.95, "moving_mean_initializer": {"config": {}, "class_name": "Zeros"}, "beta_initializer": {"config": {}, "class_name": "Zeros"}, "trainable": true, "gamma_regularizer": null}, "class_name": "BatchNormalization", "inbound_nodes": [[["conv2_1_3x3", 0, 0, {}]]]}, {"name": "activation_6", "config": {"trainable": true, "name": "activation_6", "activation": "relu"}, "class_name": "Activation", "inbound_nodes": [[["conv2_1_3x3_bn", 0, 0, {}]]]}, {"name": "conv2_1_1x1_increase", "config": {"kernel_regularizer": null, "bias_initializer": {"config": {}, "class_name": "Zeros"}, "name": "conv2_1_1x1_increase", "bias_regularizer": null, "kernel_size": [1, 1], "filters": 256, "activity_regularizer": null, "use_bias": false, "bias_constraint": null, "dilation_rate": [1, 1], "kernel_constraint": null, "padding": "valid", "data_format": "channels_last", "trainable": true, "activation": "linear", "kernel_initializer": {"config": {"seed": null, "distribution": "uniform", "scale": 1.0, "mode": "fan_avg"}, "class_name": "VarianceScaling"}, "strides": [1, 1]}, "class_name": "Conv2D", "inbound_nodes": [[["activation_6", 0, 0, {}]]]}, {"name": "conv2_1_1x1_proj", "config": {"kernel_regularizer": null, "bias_initializer": {"config": {}, "class_name": "Zeros"}, "name": "conv2_1_1x1_proj", "bias_regularizer": null, "kernel_size": [1, 1], "filters": 256, "activity_regularizer": null, "use_bias": false, "bias_constraint": null, "dilation_rate": [1, 1], "kernel_constraint": null, "padding": "valid", "data_format": "channels_last", "trainable": true, "activation": "linear", "kernel_initializer": {"config": {"seed": null, "distribution": "uniform", "scale": 1.0, "mode": "fan_avg"}, "class_name": "VarianceScaling"}, "strides": [1, 1]}, "class_name": "Conv2D", "inbound_nodes": [[["activation_4", 0, 0, {}]]]}, {"name": "conv2_1_1x1_increase_bn", "config": {"center": true, "beta_regularizer": null, "axis": -1, "name": "conv2_1_1x1_increase_bn", "epsilon": 1e-05, "scale": true, "gamma_constraint": null, "moving_variance_initializer": {"config": {}, "class_name": "Ones"}, "gamma_initializer": {"config": {}, "class_name": "Ones"}, "beta_constraint": null, "momentum": 0.95, "moving_mean_initializer": {"config": {}, "class_name": "Zeros"}, "beta_initializer": {"config": {}, "class_name": "Zeros"}, "trainable": true, "gamma_regularizer": null}, "class_name": "BatchNormalization", "inbound_nodes": [[["conv2_1_1x1_increase", 0, 0, {}]]]}, {"name": "conv2_1_1x1_proj_bn", "config": {"center": true, "beta_regularizer": null, "axis": -1, "name": "conv2_1_1x1_proj_bn", "epsilon": 1e-05, "scale": true, "gamma_constraint": null, "moving_variance_initializer": {"config": {}, "class_name": "Ones"}, "gamma_initializer": {"config": {}, "class_name": "Ones"}, "beta_constraint": null, "momentum": 0.95, "moving_mean_initializer": {"config": {}, "class_name": "Zeros"}, "beta_initializer": {"config": {}, "class_name": "Zeros"}, "trainable": true, "gamma_regularizer": null}, "class_name": "BatchNormalization", "inbound_nodes": [[["conv2_1_1x1_proj", 0, 0, {}]]]}, {"name": "add_1", "config": {"trainable": true, "name": "add_1"}, "class_name": "Add", "inbound_nodes": [[["conv2_1_1x1_increase_bn", 0, 0, {}], ["conv2_1_1x1_proj_bn", 0, 0, {}]]]}, {"name": "activation_7", "config": {"trainable": true, "name": "activation_7", "activation": "relu"}, "class_name": "Activation", "inbound_nodes": [[["add_1", 0, 0, {}]]]}, {"name": "conv2_2_1x1_reduce", "config": {"kernel_regularizer": null, "bias_initializer": {"config": {}, "class_name": "Zeros"}, "name": "conv2_2_1x1_reduce", "bias_regularizer": null, "kernel_size": [1, 1], "filters": 64, "activity_regularizer": null, "use_bias": false, "bias_constraint": null, "dilation_rate": [1, 1], "kernel_constraint": null, "padding": "valid", "data_format": "channels_last", "trainable": true, "activation": "linear", "kernel_initializer": {"config": {"seed": null, "distribution": "uniform", "scale": 1.0, "mode": "fan_avg"}, "class_name": "VarianceScaling"}, "strides": [1, 1]}, "class_name": "Conv2D", "inbound_nodes": [[["activation_7", 0, 0, {}]]]}, {"name": "conv2_2_1x1_reduce_bn", "config": {"center": true, "beta_regularizer": null, "axis": -1, "name": "conv2_2_1x1_reduce_bn", "epsilon": 1e-05, "scale": true, "gamma_constraint": null, "moving_variance_initializer": {"config": {}, "class_name": "Ones"}, "gamma_initializer": {"config": {}, "class_name": "Ones"}, "beta_constraint": null, "momentum": 0.95, "moving_mean_initializer": {"config": {}, "class_name": "Zeros"}, "beta_initializer": {"config": {}, "class_name": "Zeros"}, "trainable": true, "gamma_regularizer": null}, "class_name": "BatchNormalization", "inbound_nodes": [[["conv2_2_1x1_reduce", 0, 0, {}]]]}, {"name": "activation_8", "config": {"trainable": true, "name": "activation_8", "activation": "relu"}, "class_name": "Activation", "inbound_nodes": [[["conv2_2_1x1_reduce_bn", 0, 0, {}]]]}, {"name": "zero_padding2d_2", "config": {"data_format": "channels_last", "trainable": true, "name": "zero_padding2d_2", "padding": [[1, 1], [1, 1]]}, "class_name": "ZeroPadding2D", "inbound_nodes": [[["activation_8", 0, 0, {}]]]}, {"name": "conv2_2_3x3", "config": {"kernel_regularizer": null, "bias_initializer": {"config": {}, "class_name": "Zeros"}, "name": "conv2_2_3x3", "bias_regularizer": null, "kernel_size": [3, 3], "filters": 64, "activity_regularizer": null, "use_bias": false, "bias_constraint": null, "dilation_rate": [1, 1], "kernel_constraint": null, "padding": "valid", "data_format": "channels_last", "trainable": true, "activation": "linear", "kernel_initializer": {"config": {"seed": null, "distribution": "uniform", "scale": 1.0, "mode": "fan_avg"}, "class_name": "VarianceScaling"}, "strides": [1, 1]}, "class_name": "Conv2D", "inbound_nodes": [[["zero_padding2d_2", 0, 0, {}]]]}, {"name": "conv2_2_3x3_bn", "config": {"center": true, "beta_regularizer": null, "axis": -1, "name": "conv2_2_3x3_bn", "epsilon": 1e-05, "scale": true, "gamma_constraint": null, "moving_variance_initializer": {"config": {}, "class_name": "Ones"}, "gamma_initializer": {"config": {}, "class_name": "Ones"}, "beta_constraint": null, "momentum": 0.95, "moving_mean_initializer": {"config": {}, "class_name": "Zeros"}, "beta_initializer": {"config": {}, "class_name": "Zeros"}, "trainable": true, "gamma_regularizer": null}, "class_name": "BatchNormalization", "inbound_nodes": [[["conv2_2_3x3", 0, 0, {}]]]}, {"name": "activation_9", "config": {"trainable": true, "name": "activation_9", "activation": "relu"}, "class_name": "Activation", "inbound_nodes": [[["conv2_2_3x3_bn", 0, 0, {}]]]}, {"name": "conv2_2_1x1_increase", "config": {"kernel_regularizer": null, "bias_initializer": {"config": {}, "class_name": "Zeros"}, "name": "conv2_2_1x1_increase", "bias_regularizer": null, "kernel_size": [1, 1], "filters": 256, "activity_regularizer": null, "use_bias": false, "bias_constraint": null, "dilation_rate": [1, 1], "kernel_constraint": null, "padding": "valid", "data_format": "channels_last", "trainable": true, "activation": "linear", "kernel_initializer": {"config": {"seed": null, "distribution": "uniform", "scale": 1.0, "mode": "fan_avg"}, "class_name": "VarianceScaling"}, "strides": [1, 1]}, "class_name": "Conv2D", "inbound_nodes": [[["activation_9", 0, 0, {}]]]}, {"name": "conv2_2_1x1_increase_bn", "config": {"center": true, "beta_regularizer": null, "axis": -1, "name": "conv2_2_1x1_increase_bn", "epsilon": 1e-05, "scale": true, "gamma_constraint": null, "moving_variance_initializer": {"config": {}, "class_name": "Ones"}, "gamma_initializer": {"config": {}, "class_name": "Ones"}, "beta_constraint": null, "momentum": 0.95, "moving_mean_initializer": {"config": {}, "class_name": "Zeros"}, "beta_initializer": {"config": {}, "class_name": "Zeros"}, "trainable": true, "gamma_regularizer": null}, "class_name": "BatchNormalization", "inbound_nodes": [[["conv2_2_1x1_increase", 0, 0, {}]]]}, {"name": "add_2", "config": {"trainable": true, "name": "add_2"}, "class_name": "Add", "inbound_nodes": [[["conv2_2_1x1_increase_bn", 0, 0, {}], ["activation_7", 0, 0, {}]]]}, {"name": "activation_10", "config": {"trainable": true, "name": "activation_10", "activation": "relu"}, "class_name": "Activation", "inbound_nodes": [[["add_2", 0, 0, {}]]]}, {"name": "conv2_3_1x1_reduce", "config": {"kernel_regularizer": null, "bias_initializer": {"config": {}, "class_name": "Zeros"}, "name": "conv2_3_1x1_reduce", "bias_regularizer": null, "kernel_size": [1, 1], "filters": 64, "activity_regularizer": null, "use_bias": false, "bias_constraint": null, "dilation_rate": [1, 1], "kernel_constraint": null, "padding": "valid", "data_format": "channels_last", "trainable": true, "activation": "linear", "kernel_initializer": {"config": {"seed": null, "distribution": "uniform", "scale": 1.0, "mode": "fan_avg"}, "class_name": "VarianceScaling"}, "strides": [1, 1]}, "class_name": "Conv2D", "inbound_nodes": [[["activation_10", 0, 0, {}]]]}, {"name": "conv2_3_1x1_reduce_bn", "config": {"center": true, "beta_regularizer": null, "axis": -1, "name": "conv2_3_1x1_reduce_bn", "epsilon": 1e-05, "scale": true, "gamma_constraint": null, "moving_variance_initializer": {"config": {}, "class_name": "Ones"}, "gamma_initializer": {"config": {}, "class_name": "Ones"}, "beta_constraint": null, "momentum": 0.95, "moving_mean_initializer": {"config": {}, "class_name": "Zeros"}, "beta_initializer": {"config": {}, "class_name": "Zeros"}, "trainable": true, "gamma_regularizer": null}, "class_name": "BatchNormalization", "inbound_nodes": [[["conv2_3_1x1_reduce", 0, 0, {}]]]}, {"name": "activation_11", "config": {"trainable": true, "name": "activation_11", "activation": "relu"}, "class_name": "Activation", "inbound_nodes": [[["conv2_3_1x1_reduce_bn", 0, 0, {}]]]}, {"name": "zero_padding2d_3", "config": {"data_format": "channels_last", "trainable": true, "name": "zero_padding2d_3", "padding": [[1, 1], [1, 1]]}, "class_name": "ZeroPadding2D", "inbound_nodes": [[["activation_11", 0, 0, {}]]]}, {"name": "conv2_3_3x3", "config": {"kernel_regularizer": null, "bias_initializer": {"config": {}, "class_name": "Zeros"}, "name": "conv2_3_3x3", "bias_regularizer": null, "kernel_size": [3, 3], "filters": 64, "activity_regularizer": null, "use_bias": false, "bias_constraint": null, "dilation_rate": [1, 1], "kernel_constraint": null, "padding": "valid", "data_format": "channels_last", "trainable": true, "activation": "linear", "kernel_initializer": {"config": {"seed": null, "distribution": "uniform", "scale": 1.0, "mode": "fan_avg"}, "class_name": "VarianceScaling"}, "strides": [1, 1]}, "class_name": "Conv2D", "inbound_nodes": [[["zero_padding2d_3", 0, 0, {}]]]}, {"name": "conv2_3_3x3_bn", "config": {"center": true, "beta_regularizer": null, "axis": -1, "name": "conv2_3_3x3_bn", "epsilon": 1e-05, "scale": true, "gamma_constraint": null, "moving_variance_initializer": {"config": {}, "class_name": "Ones"}, "gamma_initializer": {"config": {}, "class_name": "Ones"}, "beta_constraint": null, "momentum": 0.95, "moving_mean_initializer": {"config": {}, "class_name": "Zeros"}, "beta_initializer": {"config": {}, "class_name": "Zeros"}, "trainable": true, "gamma_regularizer": null}, "class_name": "BatchNormalization", "inbound_nodes": [[["conv2_3_3x3", 0, 0, {}]]]}, {"name": "activation_12", "config": {"trainable": true, "name": "activation_12", "activation": "relu"}, "class_name": "Activation", "inbound_nodes": [[["conv2_3_3x3_bn", 0, 0, {}]]]}, {"name": "conv2_3_1x1_increase", "config": {"kernel_regularizer": null, "bias_initializer": {"config": {}, "class_name": "Zeros"}, "name": "conv2_3_1x1_increase", "bias_regularizer": null, "kernel_size": [1, 1], "filters": 256, "activity_regularizer": null, "use_bias": false, "bias_constraint": null, "dilation_rate": [1, 1], "kernel_constraint": null, "padding": "valid", "data_format": "channels_last", "trainable": true, "activation": "linear", "kernel_initializer": {"config": {"seed": null, "distribution": "uniform", "scale": 1.0, "mode": "fan_avg"}, "class_name": "VarianceScaling"}, "strides": [1, 1]}, "class_name": "Conv2D", "inbound_nodes": [[["activation_12", 0, 0, {}]]]}, {"name": "conv2_3_1x1_increase_bn", "config": {"center": true, "beta_regularizer": null, "axis": -1, "name": "conv2_3_1x1_increase_bn", "epsilon": 1e-05, "scale": true, "gamma_constraint": null, "moving_variance_initializer": {"config": {}, "class_name": "Ones"}, "gamma_initializer": {"config": {}, "class_name": "Ones"}, "beta_constraint": null, "momentum": 0.95, "moving_mean_initializer": {"config": {}, "class_name": "Zeros"}, "beta_initializer": {"config": {}, "class_name": "Zeros"}, "trainable": true, "gamma_regularizer": null}, "class_name": "BatchNormalization", "inbound_nodes": [[["conv2_3_1x1_increase", 0, 0, {}]]]}, {"name": "add_3", "config": {"trainable": true, "name": "add_3"}, "class_name": "Add", "inbound_nodes": [[["conv2_3_1x1_increase_bn", 0, 0, {}], ["activation_10", 0, 0, {}]]]}, {"name": "activation_13", "config": {"trainable": true, "name": "activation_13", "activation": "relu"}, "class_name": "Activation", "inbound_nodes": [[["add_3", 0, 0, {}]]]}, {"name": "conv3_1_1x1_reduce", "config": {"kernel_regularizer": null, "bias_initializer": {"config": {}, "class_name": "Zeros"}, "name": "conv3_1_1x1_reduce", "bias_regularizer": null, "kernel_size": [1, 1], "filters": 128, "activity_regularizer": null, "use_bias": false, "bias_constraint": null, "dilation_rate": [1, 1], "kernel_constraint": null, "padding": "valid", "data_format": "channels_last", "trainable": true, "activation": "linear", "kernel_initializer": {"config": {"seed": null, "distribution": "uniform", "scale": 1.0, "mode": "fan_avg"}, "class_name": "VarianceScaling"}, "strides": [2, 2]}, "class_name": "Conv2D", "inbound_nodes": [[["activation_13", 0, 0, {}]]]}, {"name": "conv3_1_1x1_reduce_bn", "config": {"center": true, "beta_regularizer": null, "axis": -1, "name": "conv3_1_1x1_reduce_bn", "epsilon": 1e-05, "scale": true, "gamma_constraint": null, "moving_variance_initializer": {"config": {}, "class_name": "Ones"}, "gamma_initializer": {"config": {}, "class_name": "Ones"}, "beta_constraint": null, "momentum": 0.95, "moving_mean_initializer": {"config": {}, "class_name": "Zeros"}, "beta_initializer": {"config": {}, "class_name": "Zeros"}, "trainable": true, "gamma_regularizer": null}, "class_name": "BatchNormalization", "inbound_nodes": [[["conv3_1_1x1_reduce", 0, 0, {}]]]}, {"name": "activation_14", "config": {"trainable": true, "name": "activation_14", "activation": "relu"}, "class_name": "Activation", "inbound_nodes": [[["conv3_1_1x1_reduce_bn", 0, 0, {}]]]}, {"name": "zero_padding2d_4", "config": {"data_format": "channels_last", "trainable": true, "name": "zero_padding2d_4", "padding": [[1, 1], [1, 1]]}, "class_name": "ZeroPadding2D", "inbound_nodes": [[["activation_14", 0, 0, {}]]]}, {"name": "conv3_1_3x3", "config": {"kernel_regularizer": null, "bias_initializer": {"config": {}, "class_name": "Zeros"}, "name": "conv3_1_3x3", "bias_regularizer": null, "kernel_size": [3, 3], "filters": 128, "activity_regularizer": null, "use_bias": false, "bias_constraint": null, "dilation_rate": [1, 1], "kernel_constraint": null, "padding": "valid", "data_format": "channels_last", "trainable": true, "activation": "linear", "kernel_initializer": {"config": {"seed": null, "distribution": "uniform", "scale": 1.0, "mode": "fan_avg"}, "class_name": "VarianceScaling"}, "strides": [1, 1]}, "class_name": "Conv2D", "inbound_nodes": [[["zero_padding2d_4", 0, 0, {}]]]}, {"name": "conv3_1_3x3_bn", "config": {"center": true, "beta_regularizer": null, "axis": -1, "name": "conv3_1_3x3_bn", "epsilon": 1e-05, "scale": true, "gamma_constraint": null, "moving_variance_initializer": {"config": {}, "class_name": "Ones"}, "gamma_initializer": {"config": {}, "class_name": "Ones"}, "beta_constraint": null, "momentum": 0.95, "moving_mean_initializer": {"config": {}, "class_name": "Zeros"}, "beta_initializer": {"config": {}, "class_name": "Zeros"}, "trainable": true, "gamma_regularizer": null}, "class_name": "BatchNormalization", "inbound_nodes": [[["conv3_1_3x3", 0, 0, {}]]]}, {"name": "activation_15", "config": {"trainable": true, "name": "activation_15", "activation": "relu"}, "class_name": "Activation", "inbound_nodes": [[["conv3_1_3x3_bn", 0, 0, {}]]]}, {"name": "conv3_1_1x1_increase", "config": {"kernel_regularizer": null, "bias_initializer": {"config": {}, "class_name": "Zeros"}, "name": "conv3_1_1x1_increase", "bias_regularizer": null, "kernel_size": [1, 1], "filters": 512, "activity_regularizer": null, "use_bias": false, "bias_constraint": null, "dilation_rate": [1, 1], "kernel_constraint": null, "padding": "valid", "data_format": "channels_last", "trainable": true, "activation": "linear", "kernel_initializer": {"config": {"seed": null, "distribution": "uniform", "scale": 1.0, "mode": "fan_avg"}, "class_name": "VarianceScaling"}, "strides": [1, 1]}, "class_name": "Conv2D", "inbound_nodes": [[["activation_15", 0, 0, {}]]]}, {"name": "conv3_1_1x1_proj", "config": {"kernel_regularizer": null, "bias_initializer": {"config": {}, "class_name": "Zeros"}, "name": "conv3_1_1x1_proj", "bias_regularizer": null, "kernel_size": [1, 1], "filters": 512, "activity_regularizer": null, "use_bias": false, "bias_constraint": null, "dilation_rate": [1, 1], "kernel_constraint": null, "padding": "valid", "data_format": "channels_last", "trainable": true, "activation": "linear", "kernel_initializer": {"config": {"seed": null, "distribution": "uniform", "scale": 1.0, "mode": "fan_avg"}, "class_name": "VarianceScaling"}, "strides": [2, 2]}, "class_name": "Conv2D", "inbound_nodes": [[["activation_13", 0, 0, {}]]]}, {"name": "conv3_1_1x1_increase_bn", "config": {"center": true, "beta_regularizer": null, "axis": -1, "name": "conv3_1_1x1_increase_bn", "epsilon": 1e-05, "scale": true, "gamma_constraint": null, "moving_variance_initializer": {"config": {}, "class_name": "Ones"}, "gamma_initializer": {"config": {}, "class_name": "Ones"}, "beta_constraint": null, "momentum": 0.95, "moving_mean_initializer": {"config": {}, "class_name": "Zeros"}, "beta_initializer": {"config": {}, "class_name": "Zeros"}, "trainable": true, "gamma_regularizer": null}, "class_name": "BatchNormalization", "inbound_nodes": [[["conv3_1_1x1_increase", 0, 0, {}]]]}, {"name": "conv3_1_1x1_proj_bn", "config": {"center": true, "beta_regularizer": null, "axis": -1, "name": "conv3_1_1x1_proj_bn", "epsilon": 1e-05, "scale": true, "gamma_constraint": null, "moving_variance_initializer": {"config": {}, "class_name": "Ones"}, "gamma_initializer": {"config": {}, "class_name": "Ones"}, "beta_constraint": null, "momentum": 0.95, "moving_mean_initializer": {"config": {}, "class_name": "Zeros"}, "beta_initializer": {"config": {}, "class_name": "Zeros"}, "trainable": true, "gamma_regularizer": null}, "class_name": "BatchNormalization", "inbound_nodes": [[["conv3_1_1x1_proj", 0, 0, {}]]]}, {"name": "add_4", "config": {"trainable": true, "name": "add_4"}, "class_name": "Add", "inbound_nodes": [[["conv3_1_1x1_increase_bn", 0, 0, {}], ["conv3_1_1x1_proj_bn", 0, 0, {}]]]}, {"name": "activation_16", "config": {"trainable": true, "name": "activation_16", "activation": "relu"}, "class_name": "Activation", "inbound_nodes": [[["add_4", 0, 0, {}]]]}, {"name": "conv3_2_1x1_reduce", "config": {"kernel_regularizer": null, "bias_initializer": {"config": {}, "class_name": "Zeros"}, "name": "conv3_2_1x1_reduce", "bias_regularizer": null, "kernel_size": [1, 1], "filters": 128, "activity_regularizer": null, "use_bias": false, "bias_constraint": null, "dilation_rate": [1, 1], "kernel_constraint": null, "padding": "valid", "data_format": "channels_last", "trainable": true, "activation": "linear", "kernel_initializer": {"config": {"seed": null, "distribution": "uniform", "scale": 1.0, "mode": "fan_avg"}, "class_name": "VarianceScaling"}, "strides": [1, 1]}, "class_name": "Conv2D", "inbound_nodes": [[["activation_16", 0, 0, {}]]]}, {"name": "conv3_2_1x1_reduce_bn", "config": {"center": true, "beta_regularizer": null, "axis": -1, "name": "conv3_2_1x1_reduce_bn", "epsilon": 1e-05, "scale": true, "gamma_constraint": null, "moving_variance_initializer": {"config": {}, "class_name": "Ones"}, "gamma_initializer": {"config": {}, "class_name": "Ones"}, "beta_constraint": null, "momentum": 0.95, "moving_mean_initializer": {"config": {}, "class_name": "Zeros"}, "beta_initializer": {"config": {}, "class_name": "Zeros"}, "trainable": true, "gamma_regularizer": null}, "class_name": "BatchNormalization", "inbound_nodes": [[["conv3_2_1x1_reduce", 0, 0, {}]]]}, {"name": "activation_17", "config": {"trainable": true, "name": "activation_17", "activation": "relu"}, "class_name": "Activation", "inbound_nodes": [[["conv3_2_1x1_reduce_bn", 0, 0, {}]]]}, {"name": "zero_padding2d_5", "config": {"data_format": "channels_last", "trainable": true, "name": "zero_padding2d_5", "padding": [[1, 1], [1, 1]]}, "class_name": "ZeroPadding2D", "inbound_nodes": [[["activation_17", 0, 0, {}]]]}, {"name": "conv3_2_3x3", "config": {"kernel_regularizer": null, "bias_initializer": {"config": {}, "class_name": "Zeros"}, "name": "conv3_2_3x3", "bias_regularizer": null, "kernel_size": [3, 3], "filters": 128, "activity_regularizer": null, "use_bias": false, "bias_constraint": null, "dilation_rate": [1, 1], "kernel_constraint": null, "padding": "valid", "data_format": "channels_last", "trainable": true, "activation": "linear", "kernel_initializer": {"config": {"seed": null, "distribution": "uniform", "scale": 1.0, "mode": "fan_avg"}, "class_name": "VarianceScaling"}, "strides": [1, 1]}, "class_name": "Conv2D", "inbound_nodes": [[["zero_padding2d_5", 0, 0, {}]]]}, {"name": "conv3_2_3x3_bn", "config": {"center": true, "beta_regularizer": null, "axis": -1, "name": "conv3_2_3x3_bn", "epsilon": 1e-05, "scale": true, "gamma_constraint": null, "moving_variance_initializer": {"config": {}, "class_name": "Ones"}, "gamma_initializer": {"config": {}, "class_name": "Ones"}, "beta_constraint": null, "momentum": 0.95, "moving_mean_initializer": {"config": {}, "class_name": "Zeros"}, "beta_initializer": {"config": {}, "class_name": "Zeros"}, "trainable": true, "gamma_regularizer": null}, "class_name": "BatchNormalization", "inbound_nodes": [[["conv3_2_3x3", 0, 0, {}]]]}, {"name": "activation_18", "config": {"trainable": true, "name": "activation_18", "activation": "relu"}, "class_name": "Activation", "inbound_nodes": [[["conv3_2_3x3_bn", 0, 0, {}]]]}, {"name": "conv3_2_1x1_increase", "config": {"kernel_regularizer": null, "bias_initializer": {"config": {}, "class_name": "Zeros"}, "name": "conv3_2_1x1_increase", "bias_regularizer": null, "kernel_size": [1, 1], "filters": 512, "activity_regularizer": null, "use_bias": false, "bias_constraint": null, "dilation_rate": [1, 1], "kernel_constraint": null, "padding": "valid", "data_format": "channels_last", "trainable": true, "activation": "linear", "kernel_initializer": {"config": {"seed": null, "distribution": "uniform", "scale": 1.0, "mode": "fan_avg"}, "class_name": "VarianceScaling"}, "strides": [1, 1]}, "class_name": "Conv2D", "inbound_nodes": [[["activation_18", 0, 0, {}]]]}, {"name": "conv3_2_1x1_increase_bn", "config": {"center": true, "beta_regularizer": null, "axis": -1, "name": "conv3_2_1x1_increase_bn", "epsilon": 1e-05, "scale": true, "gamma_constraint": null, "moving_variance_initializer": {"config": {}, "class_name": "Ones"}, "gamma_initializer": {"config": {}, "class_name": "Ones"}, "beta_constraint": null, "momentum": 0.95, "moving_mean_initializer": {"config": {}, "class_name": "Zeros"}, "beta_initializer": {"config": {}, "class_name": "Zeros"}, "trainable": true, "gamma_regularizer": null}, "class_name": "BatchNormalization", "inbound_nodes": [[["conv3_2_1x1_increase", 0, 0, {}]]]}, {"name": "add_5", "config": {"trainable": true, "name": "add_5"}, "class_name": "Add", "inbound_nodes": [[["conv3_2_1x1_increase_bn", 0, 0, {}], ["activation_16", 0, 0, {}]]]}, {"name": "activation_19", "config": {"trainable": true, "name": "activation_19", "activation": "relu"}, "class_name": "Activation", "inbound_nodes": [[["add_5", 0, 0, {}]]]}, {"name": "conv3_3_1x1_reduce", "config": {"kernel_regularizer": null, "bias_initializer": {"config": {}, "class_name": "Zeros"}, "name": "conv3_3_1x1_reduce", "bias_regularizer": null, "kernel_size": [1, 1], "filters": 128, "activity_regularizer": null, "use_bias": false, "bias_constraint": null, "dilation_rate": [1, 1], "kernel_constraint": null, "padding": "valid", "data_format": "channels_last", "trainable": true, "activation": "linear", "kernel_initializer": {"config": {"seed": null, "distribution": "uniform", "scale": 1.0, "mode": "fan_avg"}, "class_name": "VarianceScaling"}, "strides": [1, 1]}, "class_name": "Conv2D", "inbound_nodes": [[["activation_19", 0, 0, {}]]]}, {"name": "conv3_3_1x1_reduce_bn", "config": {"center": true, "beta_regularizer": null, "axis": -1, "name": "conv3_3_1x1_reduce_bn", "epsilon": 1e-05, "scale": true, "gamma_constraint": null, "moving_variance_initializer": {"config": {}, "class_name": "Ones"}, "gamma_initializer": {"config": {}, "class_name": "Ones"}, "beta_constraint": null, "momentum": 0.95, "moving_mean_initializer": {"config": {}, "class_name": "Zeros"}, "beta_initializer": {"config": {}, "class_name": "Zeros"}, "trainable": true, "gamma_regularizer": null}, "class_name": "BatchNormalization", "inbound_nodes": [[["conv3_3_1x1_reduce", 0, 0, {}]]]}, {"name": "activation_20", "config": {"trainable": true, "name": "activation_20", "activation": "relu"}, "class_name": "Activation", "inbound_nodes": [[["conv3_3_1x1_reduce_bn", 0, 0, {}]]]}, {"name": "zero_padding2d_6", "config": {"data_format": "channels_last", "trainable": true, "name": "zero_padding2d_6", "padding": [[1, 1], [1, 1]]}, "class_name": "ZeroPadding2D", "inbound_nodes": [[["activation_20", 0, 0, {}]]]}, {"name": "conv3_3_3x3", "config": {"kernel_regularizer": null, "bias_initializer": {"config": {}, "class_name": "Zeros"}, "name": "conv3_3_3x3", "bias_regularizer": null, "kernel_size": [3, 3], "filters": 128, "activity_regularizer": null, "use_bias": false, "bias_constraint": null, "dilation_rate": [1, 1], "kernel_constraint": null, "padding": "valid", "data_format": "channels_last", "trainable": true, "activation": "linear", "kernel_initializer": {"config": {"seed": null, "distribution": "uniform", "scale": 1.0, "mode": "fan_avg"}, "class_name": "VarianceScaling"}, "strides": [1, 1]}, "class_name": "Conv2D", "inbound_nodes": [[["zero_padding2d_6", 0, 0, {}]]]}, {"name": "conv3_3_3x3_bn", "config": {"center": true, "beta_regularizer": null, "axis": -1, "name": "conv3_3_3x3_bn", "epsilon": 1e-05, "scale": true, "gamma_constraint": null, "moving_variance_initializer": {"config": {}, "class_name": "Ones"}, "gamma_initializer": {"config": {}, "class_name": "Ones"}, "beta_constraint": null, "momentum": 0.95, "moving_mean_initializer": {"config": {}, "class_name": "Zeros"}, "beta_initializer": {"config": {}, "class_name": "Zeros"}, "trainable": true, "gamma_regularizer": null}, "class_name": "BatchNormalization", "inbound_nodes": [[["conv3_3_3x3", 0, 0, {}]]]}, {"name": "activation_21", "config": {"trainable": true, "name": "activation_21", "activation": "relu"}, "class_name": "Activation", "inbound_nodes": [[["conv3_3_3x3_bn", 0, 0, {}]]]}, {"name": "conv3_3_1x1_increase", "config": {"kernel_regularizer": null, "bias_initializer": {"config": {}, "class_name": "Zeros"}, "name": "conv3_3_1x1_increase", "bias_regularizer": null, "kernel_size": [1, 1], "filters": 512, "activity_regularizer": null, "use_bias": false, "bias_constraint": null, "dilation_rate": [1, 1], "kernel_constraint": null, "padding": "valid", "data_format": "channels_last", "trainable": true, "activation": "linear", "kernel_initializer": {"config": {"seed": null, "distribution": "uniform", "scale": 1.0, "mode": "fan_avg"}, "class_name": "VarianceScaling"}, "strides": [1, 1]}, "class_name": "Conv2D", "inbound_nodes": [[["activation_21", 0, 0, {}]]]}, {"name": "conv3_3_1x1_increase_bn", "config": {"center": true, "beta_regularizer": null, "axis": -1, "name": "conv3_3_1x1_increase_bn", "epsilon": 1e-05, "scale": true, "gamma_constraint": null, "moving_variance_initializer": {"config": {}, "class_name": "Ones"}, "gamma_initializer": {"config": {}, "class_name": "Ones"}, "beta_constraint": null, "momentum": 0.95, "moving_mean_initializer": {"config": {}, "class_name": "Zeros"}, "beta_initializer": {"config": {}, "class_name": "Zeros"}, "trainable": true, "gamma_regularizer": null}, "class_name": "BatchNormalization", "inbound_nodes": [[["conv3_3_1x1_increase", 0, 0, {}]]]}, {"name": "add_6", "config": {"trainable": true, "name": "add_6"}, "class_name": "Add", "inbound_nodes": [[["conv3_3_1x1_increase_bn", 0, 0, {}], ["activation_19", 0, 0, {}]]]}, {"name": "activation_22", "config": {"trainable": true, "name": "activation_22", "activation": "relu"}, "class_name": "Activation", "inbound_nodes": [[["add_6", 0, 0, {}]]]}, {"name": "conv3_4_1x1_reduce", "config": {"kernel_regularizer": null, "bias_initializer": {"config": {}, "class_name": "Zeros"}, "name": "conv3_4_1x1_reduce", "bias_regularizer": null, "kernel_size": [1, 1], "filters": 128, "activity_regularizer": null, "use_bias": false, "bias_constraint": null, "dilation_rate": [1, 1], "kernel_constraint": null, "padding": "valid", "data_format": "channels_last", "trainable": true, "activation": "linear", "kernel_initializer": {"config": {"seed": null, "distribution": "uniform", "scale": 1.0, "mode": "fan_avg"}, "class_name": "VarianceScaling"}, "strides": [1, 1]}, "class_name": "Conv2D", "inbound_nodes": [[["activation_22", 0, 0, {}]]]}, {"name": "conv3_4_1x1_reduce_bn", "config": {"center": true, "beta_regularizer": null, "axis": -1, "name": "conv3_4_1x1_reduce_bn", "epsilon": 1e-05, "scale": true, "gamma_constraint": null, "moving_variance_initializer": {"config": {}, "class_name": "Ones"}, "gamma_initializer": {"config": {}, "class_name": "Ones"}, "beta_constraint": null, "momentum": 0.95, "moving_mean_initializer": {"config": {}, "class_name": "Zeros"}, "beta_initializer": {"config": {}, "class_name": "Zeros"}, "trainable": true, "gamma_regularizer": null}, "class_name": "BatchNormalization", "inbound_nodes": [[["conv3_4_1x1_reduce", 0, 0, {}]]]}, {"name": "activation_23", "config": {"trainable": true, "name": "activation_23", "activation": "relu"}, "class_name": "Activation", "inbound_nodes": [[["conv3_4_1x1_reduce_bn", 0, 0, {}]]]}, {"name": "zero_padding2d_7", "config": {"data_format": "channels_last", "trainable": true, "name": "zero_padding2d_7", "padding": [[1, 1], [1, 1]]}, "class_name": "ZeroPadding2D", "inbound_nodes": [[["activation_23", 0, 0, {}]]]}, {"name": "conv3_4_3x3", "config": {"kernel_regularizer": null, "bias_initializer": {"config": {}, "class_name": "Zeros"}, "name": "conv3_4_3x3", "bias_regularizer": null, "kernel_size": [3, 3], "filters": 128, "activity_regularizer": null, "use_bias": false, "bias_constraint": null, "dilation_rate": [1, 1], "kernel_constraint": null, "padding": "valid", "data_format": "channels_last", "trainable": true, "activation": "linear", "kernel_initializer": {"config": {"seed": null, "distribution": "uniform", "scale": 1.0, "mode": "fan_avg"}, "class_name": "VarianceScaling"}, "strides": [1, 1]}, "class_name": "Conv2D", "inbound_nodes": [[["zero_padding2d_7", 0, 0, {}]]]}, {"name": "conv3_4_3x3_bn", "config": {"center": true, "beta_regularizer": null, "axis": -1, "name": "conv3_4_3x3_bn", "epsilon": 1e-05, "scale": true, "gamma_constraint": null, "moving_variance_initializer": {"config": {}, "class_name": "Ones"}, "gamma_initializer": {"config": {}, "class_name": "Ones"}, "beta_constraint": null, "momentum": 0.95, "moving_mean_initializer": {"config": {}, "class_name": "Zeros"}, "beta_initializer": {"config": {}, "class_name": "Zeros"}, "trainable": true, "gamma_regularizer": null}, "class_name": "BatchNormalization", "inbound_nodes": [[["conv3_4_3x3", 0, 0, {}]]]}, {"name": "activation_24", "config": {"trainable": true, "name": "activation_24", "activation": "relu"}, "class_name": "Activation", "inbound_nodes": [[["conv3_4_3x3_bn", 0, 0, {}]]]}, {"name": "conv3_4_1x1_increase", "config": {"kernel_regularizer": null, "bias_initializer": {"config": {}, "class_name": "Zeros"}, "name": "conv3_4_1x1_increase", "bias_regularizer": null, "kernel_size": [1, 1], "filters": 512, "activity_regularizer": null, "use_bias": false, "bias_constraint": null, "dilation_rate": [1, 1], "kernel_constraint": null, "padding": "valid", "data_format": "channels_last", "trainable": true, "activation": "linear", "kernel_initializer": {"config": {"seed": null, "distribution": "uniform", "scale": 1.0, "mode": "fan_avg"}, "class_name": "VarianceScaling"}, "strides": [1, 1]}, "class_name": "Conv2D", "inbound_nodes": [[["activation_24", 0, 0, {}]]]}, {"name": "conv3_4_1x1_increase_bn", "config": {"center": true, "beta_regularizer": null, "axis": -1, "name": "conv3_4_1x1_increase_bn", "epsilon": 1e-05, "scale": true, "gamma_constraint": null, "moving_variance_initializer": {"config": {}, "class_name": "Ones"}, "gamma_initializer": {"config": {}, "class_name": "Ones"}, "beta_constraint": null, "momentum": 0.95, "moving_mean_initializer": {"config": {}, "class_name": "Zeros"}, "beta_initializer": {"config": {}, "class_name": "Zeros"}, "trainable": true, "gamma_regularizer": null}, "class_name": "BatchNormalization", "inbound_nodes": [[["conv3_4_1x1_increase", 0, 0, {}]]]}, {"name": "add_7", "config": {"trainable": true, "name": "add_7"}, "class_name": "Add", "inbound_nodes": [[["conv3_4_1x1_increase_bn", 0, 0, {}], ["activation_22", 0, 0, {}]]]}, {"name": "activation_25", "config": {"trainable": true, "name": "activation_25", "activation": "relu"}, "class_name": "Activation", "inbound_nodes": [[["add_7", 0, 0, {}]]]}, {"name": "conv4_1_1x1_reduce", "config": {"kernel_regularizer": null, "bias_initializer": {"config": {}, "class_name": "Zeros"}, "name": "conv4_1_1x1_reduce", "bias_regularizer": null, "kernel_size": [1, 1], "filters": 256, "activity_regularizer": null, "use_bias": false, "bias_constraint": null, "dilation_rate": [1, 1], "kernel_constraint": null, "padding": "valid", "data_format": "channels_last", "trainable": true, "activation": "linear", "kernel_initializer": {"config": {"seed": null, "distribution": "uniform", "scale": 1.0, "mode": "fan_avg"}, "class_name": "VarianceScaling"}, "strides": [1, 1]}, "class_name": "Conv2D", "inbound_nodes": [[["activation_25", 0, 0, {}]]]}, {"name": "conv4_1_1x1_reduce_bn", "config": {"center": true, "beta_regularizer": null, "axis": -1, "name": "conv4_1_1x1_reduce_bn", "epsilon": 1e-05, "scale": true, "gamma_constraint": null, "moving_variance_initializer": {"config": {}, "class_name": "Ones"}, "gamma_initializer": {"config": {}, "class_name": "Ones"}, "beta_constraint": null, "momentum": 0.95, "moving_mean_initializer": {"config": {}, "class_name": "Zeros"}, "beta_initializer": {"config": {}, "class_name": "Zeros"}, "trainable": true, "gamma_regularizer": null}, "class_name": "BatchNormalization", "inbound_nodes": [[["conv4_1_1x1_reduce", 0, 0, {}]]]}, {"name": "activation_26", "config": {"trainable": true, "name": "activation_26", "activation": "relu"}, "class_name": "Activation", "inbound_nodes": [[["conv4_1_1x1_reduce_bn", 0, 0, {}]]]}, {"name": "zero_padding2d_8", "config": {"data_format": "channels_last", "trainable": true, "name": "zero_padding2d_8", "padding": [[2, 2], [2, 2]]}, "class_name": "ZeroPadding2D", "inbound_nodes": [[["activation_26", 0, 0, {}]]]}, {"name": "conv4_1_3x3", "config": {"kernel_regularizer": null, "bias_initializer": {"config": {}, "class_name": "Zeros"}, "name": "conv4_1_3x3", "bias_regularizer": null, "kernel_size": [3, 3], "filters": 256, "activity_regularizer": null, "use_bias": false, "bias_constraint": null, "dilation_rate": [2, 2], "kernel_constraint": null, "padding": "valid", "data_format": "channels_last", "trainable": true, "activation": "linear", "kernel_initializer": {"config": {"seed": null, "distribution": "uniform", "scale": 1.0, "mode": "fan_avg"}, "class_name": "VarianceScaling"}, "strides": [1, 1]}, "class_name": "Conv2D", "inbound_nodes": [[["zero_padding2d_8", 0, 0, {}]]]}, {"name": "conv4_1_3x3_bn", "config": {"center": true, "beta_regularizer": null, "axis": -1, "name": "conv4_1_3x3_bn", "epsilon": 1e-05, "scale": true, "gamma_constraint": null, "moving_variance_initializer": {"config": {}, "class_name": "Ones"}, "gamma_initializer": {"config": {}, "class_name": "Ones"}, "beta_constraint": null, "momentum": 0.95, "moving_mean_initializer": {"config": {}, "class_name": "Zeros"}, "beta_initializer": {"config": {}, "class_name": "Zeros"}, "trainable": true, "gamma_regularizer": null}, "class_name": "BatchNormalization", "inbound_nodes": [[["conv4_1_3x3", 0, 0, {}]]]}, {"name": "activation_27", "config": {"trainable": true, "name": "activation_27", "activation": "relu"}, "class_name": "Activation", "inbound_nodes": [[["conv4_1_3x3_bn", 0, 0, {}]]]}, {"name": "conv4_1_1x1_increase", "config": {"kernel_regularizer": null, "bias_initializer": {"config": {}, "class_name": "Zeros"}, "name": "conv4_1_1x1_increase", "bias_regularizer": null, "kernel_size": [1, 1], "filters": 1024, "activity_regularizer": null, "use_bias": false, "bias_constraint": null, "dilation_rate": [1, 1], "kernel_constraint": null, "padding": "valid", "data_format": "channels_last", "trainable": true, "activation": "linear", "kernel_initializer": {"config": {"seed": null, "distribution": "uniform", "scale": 1.0, "mode": "fan_avg"}, "class_name": "VarianceScaling"}, "strides": [1, 1]}, "class_name": "Conv2D", "inbound_nodes": [[["activation_27", 0, 0, {}]]]}, {"name": "conv4_1_1x1_proj", "config": {"kernel_regularizer": null, "bias_initializer": {"config": {}, "class_name": "Zeros"}, "name": "conv4_1_1x1_proj", "bias_regularizer": null, "kernel_size": [1, 1], "filters": 1024, "activity_regularizer": null, "use_bias": false, "bias_constraint": null, "dilation_rate": [1, 1], "kernel_constraint": null, "padding": "valid", "data_format": "channels_last", "trainable": true, "activation": "linear", "kernel_initializer": {"config": {"seed": null, "distribution": "uniform", "scale": 1.0, "mode": "fan_avg"}, "class_name": "VarianceScaling"}, "strides": [1, 1]}, "class_name": "Conv2D", "inbound_nodes": [[["activation_25", 0, 0, {}]]]}, {"name": "conv4_1_1x1_increase_bn", "config": {"center": true, "beta_regularizer": null, "axis": -1, "name": "conv4_1_1x1_increase_bn", "epsilon": 1e-05, "scale": true, "gamma_constraint": null, "moving_variance_initializer": {"config": {}, "class_name": "Ones"}, "gamma_initializer": {"config": {}, "class_name": "Ones"}, "beta_constraint": null, "momentum": 0.95, "moving_mean_initializer": {"config": {}, "class_name": "Zeros"}, "beta_initializer": {"config": {}, "class_name": "Zeros"}, "trainable": true, "gamma_regularizer": null}, "class_name": "BatchNormalization", "inbound_nodes": [[["conv4_1_1x1_increase", 0, 0, {}]]]}, {"name": "conv4_1_1x1_proj_bn", "config": {"center": true, "beta_regularizer": null, "axis": -1, "name": "conv4_1_1x1_proj_bn", "epsilon": 1e-05, "scale": true, "gamma_constraint": null, "moving_variance_initializer": {"config": {}, "class_name": "Ones"}, "gamma_initializer": {"config": {}, "class_name": "Ones"}, "beta_constraint": null, "momentum": 0.95, "moving_mean_initializer": {"config": {}, "class_name": "Zeros"}, "beta_initializer": {"config": {}, "class_name": "Zeros"}, "trainable": true, "gamma_regularizer": null}, "class_name": "BatchNormalization", "inbound_nodes": [[["conv4_1_1x1_proj", 0, 0, {}]]]}, {"name": "add_8", "config": {"trainable": true, "name": "add_8"}, "class_name": "Add", "inbound_nodes": [[["conv4_1_1x1_increase_bn", 0, 0, {}], ["conv4_1_1x1_proj_bn", 0, 0, {}]]]}, {"name": "activation_28", "config": {"trainable": true, "name": "activation_28", "activation": "relu"}, "class_name": "Activation", "inbound_nodes": [[["add_8", 0, 0, {}]]]}, {"name": "conv4_2_1x1_reduce", "config": {"kernel_regularizer": null, "bias_initializer": {"config": {}, "class_name": "Zeros"}, "name": "conv4_2_1x1_reduce", "bias_regularizer": null, "kernel_size": [1, 1], "filters": 256, "activity_regularizer": null, "use_bias": false, "bias_constraint": null, "dilation_rate": [1, 1], "kernel_constraint": null, "padding": "valid", "data_format": "channels_last", "trainable": true, "activation": "linear", "kernel_initializer": {"config": {"seed": null, "distribution": "uniform", "scale": 1.0, "mode": "fan_avg"}, "class_name": "VarianceScaling"}, "strides": [1, 1]}, "class_name": "Conv2D", "inbound_nodes": [[["activation_28", 0, 0, {}]]]}, {"name": "conv4_2_1x1_reduce_bn", "config": {"center": true, "beta_regularizer": null, "axis": -1, "name": "conv4_2_1x1_reduce_bn", "epsilon": 1e-05, "scale": true, "gamma_constraint": null, "moving_variance_initializer": {"config": {}, "class_name": "Ones"}, "gamma_initializer": {"config": {}, "class_name": "Ones"}, "beta_constraint": null, "momentum": 0.95, "moving_mean_initializer": {"config": {}, "class_name": "Zeros"}, "beta_initializer": {"config": {}, "class_name": "Zeros"}, "trainable": true, "gamma_regularizer": null}, "class_name": "BatchNormalization", "inbound_nodes": [[["conv4_2_1x1_reduce", 0, 0, {}]]]}, {"name": "activation_29", "config": {"trainable": true, "name": "activation_29", "activation": "relu"}, "class_name": "Activation", "inbound_nodes": [[["conv4_2_1x1_reduce_bn", 0, 0, {}]]]}, {"name": "zero_padding2d_9", "config": {"data_format": "channels_last", "trainable": true, "name": "zero_padding2d_9", "padding": [[2, 2], [2, 2]]}, "class_name": "ZeroPadding2D", "inbound_nodes": [[["activation_29", 0, 0, {}]]]}, {"name": "conv4_2_3x3", "config": {"kernel_regularizer": null, "bias_initializer": {"config": {}, "class_name": "Zeros"}, "name": "conv4_2_3x3", "bias_regularizer": null, "kernel_size": [3, 3], "filters": 256, "activity_regularizer": null, "use_bias": false, "bias_constraint": null, "dilation_rate": [2, 2], "kernel_constraint": null, "padding": "valid", "data_format": "channels_last", "trainable": true, "activation": "linear", "kernel_initializer": {"config": {"seed": null, "distribution": "uniform", "scale": 1.0, "mode": "fan_avg"}, "class_name": "VarianceScaling"}, "strides": [1, 1]}, "class_name": "Conv2D", "inbound_nodes": [[["zero_padding2d_9", 0, 0, {}]]]}, {"name": "conv4_2_3x3_bn", "config": {"center": true, "beta_regularizer": null, "axis": -1, "name": "conv4_2_3x3_bn", "epsilon": 1e-05, "scale": true, "gamma_constraint": null, "moving_variance_initializer": {"config": {}, "class_name": "Ones"}, "gamma_initializer": {"config": {}, "class_name": "Ones"}, "beta_constraint": null, "momentum": 0.95, "moving_mean_initializer": {"config": {}, "class_name": "Zeros"}, "beta_initializer": {"config": {}, "class_name": "Zeros"}, "trainable": true, "gamma_regularizer": null}, "class_name": "BatchNormalization", "inbound_nodes": [[["conv4_2_3x3", 0, 0, {}]]]}, {"name": "activation_30", "config": {"trainable": true, "name": "activation_30", "activation": "relu"}, "class_name": "Activation", "inbound_nodes": [[["conv4_2_3x3_bn", 0, 0, {}]]]}, {"name": "conv4_2_1x1_increase", "config": {"kernel_regularizer": null, "bias_initializer": {"config": {}, "class_name": "Zeros"}, "name": "conv4_2_1x1_increase", "bias_regularizer": null, "kernel_size": [1, 1], "filters": 1024, "activity_regularizer": null, "use_bias": false, "bias_constraint": null, "dilation_rate": [1, 1], "kernel_constraint": null, "padding": "valid", "data_format": "channels_last", "trainable": true, "activation": "linear", "kernel_initializer": {"config": {"seed": null, "distribution": "uniform", "scale": 1.0, "mode": "fan_avg"}, "class_name": "VarianceScaling"}, "strides": [1, 1]}, "class_name": "Conv2D", "inbound_nodes": [[["activation_30", 0, 0, {}]]]}, {"name": "conv4_2_1x1_increase_bn", "config": {"center": true, "beta_regularizer": null, "axis": -1, "name": "conv4_2_1x1_increase_bn", "epsilon": 1e-05, "scale": true, "gamma_constraint": null, "moving_variance_initializer": {"config": {}, "class_name": "Ones"}, "gamma_initializer": {"config": {}, "class_name": "Ones"}, "beta_constraint": null, "momentum": 0.95, "moving_mean_initializer": {"config": {}, "class_name": "Zeros"}, "beta_initializer": {"config": {}, "class_name": "Zeros"}, "trainable": true, "gamma_regularizer": null}, "class_name": "BatchNormalization", "inbound_nodes": [[["conv4_2_1x1_increase", 0, 0, {}]]]}, {"name": "add_9", "config": {"trainable": true, "name": "add_9"}, "class_name": "Add", "inbound_nodes": [[["conv4_2_1x1_increase_bn", 0, 0, {}], ["activation_28", 0, 0, {}]]]}, {"name": "activation_31", "config": {"trainable": true, "name": "activation_31", "activation": "relu"}, "class_name": "Activation", "inbound_nodes": [[["add_9", 0, 0, {}]]]}, {"name": "conv4_3_1x1_reduce", "config": {"kernel_regularizer": null, "bias_initializer": {"config": {}, "class_name": "Zeros"}, "name": "conv4_3_1x1_reduce", "bias_regularizer": null, "kernel_size": [1, 1], "filters": 256, "activity_regularizer": null, "use_bias": false, "bias_constraint": null, "dilation_rate": [1, 1], "kernel_constraint": null, "padding": "valid", "data_format": "channels_last", "trainable": true, "activation": "linear", "kernel_initializer": {"config": {"seed": null, "distribution": "uniform", "scale": 1.0, "mode": "fan_avg"}, "class_name": "VarianceScaling"}, "strides": [1, 1]}, "class_name": "Conv2D", "inbound_nodes": [[["activation_31", 0, 0, {}]]]}, {"name": "conv4_3_1x1_reduce_bn", "config": {"center": true, "beta_regularizer": null, "axis": -1, "name": "conv4_3_1x1_reduce_bn", "epsilon": 1e-05, "scale": true, "gamma_constraint": null, "moving_variance_initializer": {"config": {}, "class_name": "Ones"}, "gamma_initializer": {"config": {}, "class_name": "Ones"}, "beta_constraint": null, "momentum": 0.95, "moving_mean_initializer": {"config": {}, "class_name": "Zeros"}, "beta_initializer": {"config": {}, "class_name": "Zeros"}, "trainable": true, "gamma_regularizer": null}, "class_name": "BatchNormalization", "inbound_nodes": [[["conv4_3_1x1_reduce", 0, 0, {}]]]}, {"name": "activation_32", "config": {"trainable": true, "name": "activation_32", "activation": "relu"}, "class_name": "Activation", "inbound_nodes": [[["conv4_3_1x1_reduce_bn", 0, 0, {}]]]}, {"name": "zero_padding2d_10", "config": {"data_format": "channels_last", "trainable": true, "name": "zero_padding2d_10", "padding": [[2, 2], [2, 2]]}, "class_name": "ZeroPadding2D", "inbound_nodes": [[["activation_32", 0, 0, {}]]]}, {"name": "conv4_3_3x3", "config": {"kernel_regularizer": null, "bias_initializer": {"config": {}, "class_name": "Zeros"}, "name": "conv4_3_3x3", "bias_regularizer": null, "kernel_size": [3, 3], "filters": 256, "activity_regularizer": null, "use_bias": false, "bias_constraint": null, "dilation_rate": [2, 2], "kernel_constraint": null, "padding": "valid", "data_format": "channels_last", "trainable": true, "activation": "linear", "kernel_initializer": {"config": {"seed": null, "distribution": "uniform", "scale": 1.0, "mode": "fan_avg"}, "class_name": "VarianceScaling"}, "strides": [1, 1]}, "class_name": "Conv2D", "inbound_nodes": [[["zero_padding2d_10", 0, 0, {}]]]}, {"name": "conv4_3_3x3_bn", "config": {"center": true, "beta_regularizer": null, "axis": -1, "name": "conv4_3_3x3_bn", "epsilon": 1e-05, "scale": true, "gamma_constraint": null, "moving_variance_initializer": {"config": {}, "class_name": "Ones"}, "gamma_initializer": {"config": {}, "class_name": "Ones"}, "beta_constraint": null, "momentum": 0.95, "moving_mean_initializer": {"config": {}, "class_name": "Zeros"}, "beta_initializer": {"config": {}, "class_name": "Zeros"}, "trainable": true, "gamma_regularizer": null}, "class_name": "BatchNormalization", "inbound_nodes": [[["conv4_3_3x3", 0, 0, {}]]]}, {"name": "activation_33", "config": {"trainable": true, "name": "activation_33", "activation": "relu"}, "class_name": "Activation", "inbound_nodes": [[["conv4_3_3x3_bn", 0, 0, {}]]]}, {"name": "conv4_3_1x1_increase", "config": {"kernel_regularizer": null, "bias_initializer": {"config": {}, "class_name": "Zeros"}, "name": "conv4_3_1x1_increase", "bias_regularizer": null, "kernel_size": [1, 1], "filters": 1024, "activity_regularizer": null, "use_bias": false, "bias_constraint": null, "dilation_rate": [1, 1], "kernel_constraint": null, "padding": "valid", "data_format": "channels_last", "trainable": true, "activation": "linear", "kernel_initializer": {"config": {"seed": null, "distribution": "uniform", "scale": 1.0, "mode": "fan_avg"}, "class_name": "VarianceScaling"}, "strides": [1, 1]}, "class_name": "Conv2D", "inbound_nodes": [[["activation_33", 0, 0, {}]]]}, {"name": "conv4_3_1x1_increase_bn", "config": {"center": true, "beta_regularizer": null, "axis": -1, "name": "conv4_3_1x1_increase_bn", "epsilon": 1e-05, "scale": true, "gamma_constraint": null, "moving_variance_initializer": {"config": {}, "class_name": "Ones"}, "gamma_initializer": {"config": {}, "class_name": "Ones"}, "beta_constraint": null, "momentum": 0.95, "moving_mean_initializer": {"config": {}, "class_name": "Zeros"}, "beta_initializer": {"config": {}, "class_name": "Zeros"}, "trainable": true, "gamma_regularizer": null}, "class_name": "BatchNormalization", "inbound_nodes": [[["conv4_3_1x1_increase", 0, 0, {}]]]}, {"name": "add_10", "config": {"trainable": true, "name": "add_10"}, "class_name": "Add", "inbound_nodes": [[["conv4_3_1x1_increase_bn", 0, 0, {}], ["activation_31", 0, 0, {}]]]}, {"name": "activation_34", "config": {"trainable": true, "name": "activation_34", "activation": "relu"}, "class_name": "Activation", "inbound_nodes": [[["add_10", 0, 0, {}]]]}, {"name": "conv4_4_1x1_reduce", "config": {"kernel_regularizer": null, "bias_initializer": {"config": {}, "class_name": "Zeros"}, "name": "conv4_4_1x1_reduce", "bias_regularizer": null, "kernel_size": [1, 1], "filters": 256, "activity_regularizer": null, "use_bias": false, "bias_constraint": null, "dilation_rate": [1, 1], "kernel_constraint": null, "padding": "valid", "data_format": "channels_last", "trainable": true, "activation": "linear", "kernel_initializer": {"config": {"seed": null, "distribution": "uniform", "scale": 1.0, "mode": "fan_avg"}, "class_name": "VarianceScaling"}, "strides": [1, 1]}, "class_name": "Conv2D", "inbound_nodes": [[["activation_34", 0, 0, {}]]]}, {"name": "conv4_4_1x1_reduce_bn", "config": {"center": true, "beta_regularizer": null, "axis": -1, "name": "conv4_4_1x1_reduce_bn", "epsilon": 1e-05, "scale": true, "gamma_constraint": null, "moving_variance_initializer": {"config": {}, "class_name": "Ones"}, "gamma_initializer": {"config": {}, "class_name": "Ones"}, "beta_constraint": null, "momentum": 0.95, "moving_mean_initializer": {"config": {}, "class_name": "Zeros"}, "beta_initializer": {"config": {}, "class_name": "Zeros"}, "trainable": true, "gamma_regularizer": null}, "class_name": "BatchNormalization", "inbound_nodes": [[["conv4_4_1x1_reduce", 0, 0, {}]]]}, {"name": "activation_35", "config": {"trainable": true, "name": "activation_35", "activation": "relu"}, "class_name": "Activation", "inbound_nodes": [[["conv4_4_1x1_reduce_bn", 0, 0, {}]]]}, {"name": "zero_padding2d_11", "config": {"data_format": "channels_last", "trainable": true, "name": "zero_padding2d_11", "padding": [[2, 2], [2, 2]]}, "class_name": "ZeroPadding2D", "inbound_nodes": [[["activation_35", 0, 0, {}]]]}, {"name": "conv4_4_3x3", "config": {"kernel_regularizer": null, "bias_initializer": {"config": {}, "class_name": "Zeros"}, "name": "conv4_4_3x3", "bias_regularizer": null, "kernel_size": [3, 3], "filters": 256, "activity_regularizer": null, "use_bias": false, "bias_constraint": null, "dilation_rate": [2, 2], "kernel_constraint": null, "padding": "valid", "data_format": "channels_last", "trainable": true, "activation": "linear", "kernel_initializer": {"config": {"seed": null, "distribution": "uniform", "scale": 1.0, "mode": "fan_avg"}, "class_name": "VarianceScaling"}, "strides": [1, 1]}, "class_name": "Conv2D", "inbound_nodes": [[["zero_padding2d_11", 0, 0, {}]]]}, {"name": "conv4_4_3x3_bn", "config": {"center": true, "beta_regularizer": null, "axis": -1, "name": "conv4_4_3x3_bn", "epsilon": 1e-05, "scale": true, "gamma_constraint": null, "moving_variance_initializer": {"config": {}, "class_name": "Ones"}, "gamma_initializer": {"config": {}, "class_name": "Ones"}, "beta_constraint": null, "momentum": 0.95, "moving_mean_initializer": {"config": {}, "class_name": "Zeros"}, "beta_initializer": {"config": {}, "class_name": "Zeros"}, "trainable": true, "gamma_regularizer": null}, "class_name": "BatchNormalization", "inbound_nodes": [[["conv4_4_3x3", 0, 0, {}]]]}, {"name": "activation_36", "config": {"trainable": true, "name": "activation_36", "activation": "relu"}, "class_name": "Activation", "inbound_nodes": [[["conv4_4_3x3_bn", 0, 0, {}]]]}, {"name": "conv4_4_1x1_increase", "config": {"kernel_regularizer": null, "bias_initializer": {"config": {}, "class_name": "Zeros"}, "name": "conv4_4_1x1_increase", "bias_regularizer": null, "kernel_size": [1, 1], "filters": 1024, "activity_regularizer": null, "use_bias": false, "bias_constraint": null, "dilation_rate": [1, 1], "kernel_constraint": null, "padding": "valid", "data_format": "channels_last", "trainable": true, "activation": "linear", "kernel_initializer": {"config": {"seed": null, "distribution": "uniform", "scale": 1.0, "mode": "fan_avg"}, "class_name": "VarianceScaling"}, "strides": [1, 1]}, "class_name": "Conv2D", "inbound_nodes": [[["activation_36", 0, 0, {}]]]}, {"name": "conv4_4_1x1_increase_bn", "config": {"center": true, "beta_regularizer": null, "axis": -1, "name": "conv4_4_1x1_increase_bn", "epsilon": 1e-05, "scale": true, "gamma_constraint": null, "moving_variance_initializer": {"config": {}, "class_name": "Ones"}, "gamma_initializer": {"config": {}, "class_name": "Ones"}, "beta_constraint": null, "momentum": 0.95, "moving_mean_initializer": {"config": {}, "class_name": "Zeros"}, "beta_initializer": {"config": {}, "class_name": "Zeros"}, "trainable": true, "gamma_regularizer": null}, "class_name": "BatchNormalization", "inbound_nodes": [[["conv4_4_1x1_increase", 0, 0, {}]]]}, {"name": "add_11", "config": {"trainable": true, "name": "add_11"}, "class_name": "Add", "inbound_nodes": [[["conv4_4_1x1_increase_bn", 0, 0, {}], ["activation_34", 0, 0, {}]]]}, {"name": "activation_37", "config": {"trainable": true, "name": "activation_37", "activation": "relu"}, "class_name": "Activation", "inbound_nodes": [[["add_11", 0, 0, {}]]]}, {"name": "conv4_5_1x1_reduce", "config": {"kernel_regularizer": null, "bias_initializer": {"config": {}, "class_name": "Zeros"}, "name": "conv4_5_1x1_reduce", "bias_regularizer": null, "kernel_size": [1, 1], "filters": 256, "activity_regularizer": null, "use_bias": false, "bias_constraint": null, "dilation_rate": [1, 1], "kernel_constraint": null, "padding": "valid", "data_format": "channels_last", "trainable": true, "activation": "linear", "kernel_initializer": {"config": {"seed": null, "distribution": "uniform", "scale": 1.0, "mode": "fan_avg"}, "class_name": "VarianceScaling"}, "strides": [1, 1]}, "class_name": "Conv2D", "inbound_nodes": [[["activation_37", 0, 0, {}]]]}, {"name": "conv4_5_1x1_reduce_bn", "config": {"center": true, "beta_regularizer": null, "axis": -1, "name": "conv4_5_1x1_reduce_bn", "epsilon": 1e-05, "scale": true, "gamma_constraint": null, "moving_variance_initializer": {"config": {}, "class_name": "Ones"}, "gamma_initializer": {"config": {}, "class_name": "Ones"}, "beta_constraint": null, "momentum": 0.95, "moving_mean_initializer": {"config": {}, "class_name": "Zeros"}, "beta_initializer": {"config": {}, "class_name": "Zeros"}, "trainable": true, "gamma_regularizer": null}, "class_name": "BatchNormalization", "inbound_nodes": [[["conv4_5_1x1_reduce", 0, 0, {}]]]}, {"name": "activation_38", "config": {"trainable": true, "name": "activation_38", "activation": "relu"}, "class_name": "Activation", "inbound_nodes": [[["conv4_5_1x1_reduce_bn", 0, 0, {}]]]}, {"name": "zero_padding2d_12", "config": {"data_format": "channels_last", "trainable": true, "name": "zero_padding2d_12", "padding": [[2, 2], [2, 2]]}, "class_name": "ZeroPadding2D", "inbound_nodes": [[["activation_38", 0, 0, {}]]]}, {"name": "conv4_5_3x3", "config": {"kernel_regularizer": null, "bias_initializer": {"config": {}, "class_name": "Zeros"}, "name": "conv4_5_3x3", "bias_regularizer": null, "kernel_size": [3, 3], "filters": 256, "activity_regularizer": null, "use_bias": false, "bias_constraint": null, "dilation_rate": [2, 2], "kernel_constraint": null, "padding": "valid", "data_format": "channels_last", "trainable": true, "activation": "linear", "kernel_initializer": {"config": {"seed": null, "distribution": "uniform", "scale": 1.0, "mode": "fan_avg"}, "class_name": "VarianceScaling"}, "strides": [1, 1]}, "class_name": "Conv2D", "inbound_nodes": [[["zero_padding2d_12", 0, 0, {}]]]}, {"name": "conv4_5_3x3_bn", "config": {"center": true, "beta_regularizer": null, "axis": -1, "name": "conv4_5_3x3_bn", "epsilon": 1e-05, "scale": true, "gamma_constraint": null, "moving_variance_initializer": {"config": {}, "class_name": "Ones"}, "gamma_initializer": {"config": {}, "class_name": "Ones"}, "beta_constraint": null, "momentum": 0.95, "moving_mean_initializer": {"config": {}, "class_name": "Zeros"}, "beta_initializer": {"config": {}, "class_name": "Zeros"}, "trainable": true, "gamma_regularizer": null}, "class_name": "BatchNormalization", "inbound_nodes": [[["conv4_5_3x3", 0, 0, {}]]]}, {"name": "activation_39", "config": {"trainable": true, "name": "activation_39", "activation": "relu"}, "class_name": "Activation", "inbound_nodes": [[["conv4_5_3x3_bn", 0, 0, {}]]]}, {"name": "conv4_5_1x1_increase", "config": {"kernel_regularizer": null, "bias_initializer": {"config": {}, "class_name": "Zeros"}, "name": "conv4_5_1x1_increase", "bias_regularizer": null, "kernel_size": [1, 1], "filters": 1024, "activity_regularizer": null, "use_bias": false, "bias_constraint": null, "dilation_rate": [1, 1], "kernel_constraint": null, "padding": "valid", "data_format": "channels_last", "trainable": true, "activation": "linear", "kernel_initializer": {"config": {"seed": null, "distribution": "uniform", "scale": 1.0, "mode": "fan_avg"}, "class_name": "VarianceScaling"}, "strides": [1, 1]}, "class_name": "Conv2D", "inbound_nodes": [[["activation_39", 0, 0, {}]]]}, {"name": "conv4_5_1x1_increase_bn", "config": {"center": true, "beta_regularizer": null, "axis": -1, "name": "conv4_5_1x1_increase_bn", "epsilon": 1e-05, "scale": true, "gamma_constraint": null, "moving_variance_initializer": {"config": {}, "class_name": "Ones"}, "gamma_initializer": {"config": {}, "class_name": "Ones"}, "beta_constraint": null, "momentum": 0.95, "moving_mean_initializer": {"config": {}, "class_name": "Zeros"}, "beta_initializer": {"config": {}, "class_name": "Zeros"}, "trainable": true, "gamma_regularizer": null}, "class_name": "BatchNormalization", "inbound_nodes": [[["conv4_5_1x1_increase", 0, 0, {}]]]}, {"name": "add_12", "config": {"trainable": true, "name": "add_12"}, "class_name": "Add", "inbound_nodes": [[["conv4_5_1x1_increase_bn", 0, 0, {}], ["activation_37", 0, 0, {}]]]}, {"name": "activation_40", "config": {"trainable": true, "name": "activation_40", "activation": "relu"}, "class_name": "Activation", "inbound_nodes": [[["add_12", 0, 0, {}]]]}, {"name": "conv4_6_1x1_reduce", "config": {"kernel_regularizer": null, "bias_initializer": {"config": {}, "class_name": "Zeros"}, "name": "conv4_6_1x1_reduce", "bias_regularizer": null, "kernel_size": [1, 1], "filters": 256, "activity_regularizer": null, "use_bias": false, "bias_constraint": null, "dilation_rate": [1, 1], "kernel_constraint": null, "padding": "valid", "data_format": "channels_last", "trainable": true, "activation": "linear", "kernel_initializer": {"config": {"seed": null, "distribution": "uniform", "scale": 1.0, "mode": "fan_avg"}, "class_name": "VarianceScaling"}, "strides": [1, 1]}, "class_name": "Conv2D", "inbound_nodes": [[["activation_40", 0, 0, {}]]]}, {"name": "conv4_6_1x1_reduce_bn", "config": {"center": true, "beta_regularizer": null, "axis": -1, "name": "conv4_6_1x1_reduce_bn", "epsilon": 1e-05, "scale": true, "gamma_constraint": null, "moving_variance_initializer": {"config": {}, "class_name": "Ones"}, "gamma_initializer": {"config": {}, "class_name": "Ones"}, "beta_constraint": null, "momentum": 0.95, "moving_mean_initializer": {"config": {}, "class_name": "Zeros"}, "beta_initializer": {"config": {}, "class_name": "Zeros"}, "trainable": true, "gamma_regularizer": null}, "class_name": "BatchNormalization", "inbound_nodes": [[["conv4_6_1x1_reduce", 0, 0, {}]]]}, {"name": "activation_41", "config": {"trainable": true, "name": "activation_41", "activation": "relu"}, "class_name": "Activation", "inbound_nodes": [[["conv4_6_1x1_reduce_bn", 0, 0, {}]]]}, {"name": "zero_padding2d_13", "config": {"data_format": "channels_last", "trainable": true, "name": "zero_padding2d_13", "padding": [[2, 2], [2, 2]]}, "class_name": "ZeroPadding2D", "inbound_nodes": [[["activation_41", 0, 0, {}]]]}, {"name": "conv4_6_3x3", "config": {"kernel_regularizer": null, "bias_initializer": {"config": {}, "class_name": "Zeros"}, "name": "conv4_6_3x3", "bias_regularizer": null, "kernel_size": [3, 3], "filters": 256, "activity_regularizer": null, "use_bias": false, "bias_constraint": null, "dilation_rate": [2, 2], "kernel_constraint": null, "padding": "valid", "data_format": "channels_last", "trainable": true, "activation": "linear", "kernel_initializer": {"config": {"seed": null, "distribution": "uniform", "scale": 1.0, "mode": "fan_avg"}, "class_name": "VarianceScaling"}, "strides": [1, 1]}, "class_name": "Conv2D", "inbound_nodes": [[["zero_padding2d_13", 0, 0, {}]]]}, {"name": "conv4_6_3x3_bn", "config": {"center": true, "beta_regularizer": null, "axis": -1, "name": "conv4_6_3x3_bn", "epsilon": 1e-05, "scale": true, "gamma_constraint": null, "moving_variance_initializer": {"config": {}, "class_name": "Ones"}, "gamma_initializer": {"config": {}, "class_name": "Ones"}, "beta_constraint": null, "momentum": 0.95, "moving_mean_initializer": {"config": {}, "class_name": "Zeros"}, "beta_initializer": {"config": {}, "class_name": "Zeros"}, "trainable": true, "gamma_regularizer": null}, "class_name": "BatchNormalization", "inbound_nodes": [[["conv4_6_3x3", 0, 0, {}]]]}, {"name": "activation_42", "config": {"trainable": true, "name": "activation_42", "activation": "relu"}, "class_name": "Activation", "inbound_nodes": [[["conv4_6_3x3_bn", 0, 0, {}]]]}, {"name": "conv4_6_1x1_increase", "config": {"kernel_regularizer": null, "bias_initializer": {"config": {}, "class_name": "Zeros"}, "name": "conv4_6_1x1_increase", "bias_regularizer": null, "kernel_size": [1, 1], "filters": 1024, "activity_regularizer": null, "use_bias": false, "bias_constraint": null, "dilation_rate": [1, 1], "kernel_constraint": null, "padding": "valid", "data_format": "channels_last", "trainable": true, "activation": "linear", "kernel_initializer": {"config": {"seed": null, "distribution": "uniform", "scale": 1.0, "mode": "fan_avg"}, "class_name": "VarianceScaling"}, "strides": [1, 1]}, "class_name": "Conv2D", "inbound_nodes": [[["activation_42", 0, 0, {}]]]}, {"name": "conv4_6_1x1_increase_bn", "config": {"center": true, "beta_regularizer": null, "axis": -1, "name": "conv4_6_1x1_increase_bn", "epsilon": 1e-05, "scale": true, "gamma_constraint": null, "moving_variance_initializer": {"config": {}, "class_name": "Ones"}, "gamma_initializer": {"config": {}, "class_name": "Ones"}, "beta_constraint": null, "momentum": 0.95, "moving_mean_initializer": {"config": {}, "class_name": "Zeros"}, "beta_initializer": {"config": {}, "class_name": "Zeros"}, "trainable": true, "gamma_regularizer": null}, "class_name": "BatchNormalization", "inbound_nodes": [[["conv4_6_1x1_increase", 0, 0, {}]]]}, {"name": "add_13", "config": {"trainable": true, "name": "add_13"}, "class_name": "Add", "inbound_nodes": [[["conv4_6_1x1_increase_bn", 0, 0, {}], ["activation_40", 0, 0, {}]]]}, {"name": "activation_43", "config": {"trainable": true, "name": "activation_43", "activation": "relu"}, "class_name": "Activation", "inbound_nodes": [[["add_13", 0, 0, {}]]]}, {"name": "conv4_7_1x1_reduce", "config": {"kernel_regularizer": null, "bias_initializer": {"config": {}, "class_name": "Zeros"}, "name": "conv4_7_1x1_reduce", "bias_regularizer": null, "kernel_size": [1, 1], "filters": 256, "activity_regularizer": null, "use_bias": false, "bias_constraint": null, "dilation_rate": [1, 1], "kernel_constraint": null, "padding": "valid", "data_format": "channels_last", "trainable": true, "activation": "linear", "kernel_initializer": {"config": {"seed": null, "distribution": "uniform", "scale": 1.0, "mode": "fan_avg"}, "class_name": "VarianceScaling"}, "strides": [1, 1]}, "class_name": "Conv2D", "inbound_nodes": [[["activation_43", 0, 0, {}]]]}, {"name": "conv4_7_1x1_reduce_bn", "config": {"center": true, "beta_regularizer": null, "axis": -1, "name": "conv4_7_1x1_reduce_bn", "epsilon": 1e-05, "scale": true, "gamma_constraint": null, "moving_variance_initializer": {"config": {}, "class_name": "Ones"}, "gamma_initializer": {"config": {}, "class_name": "Ones"}, "beta_constraint": null, "momentum": 0.95, "moving_mean_initializer": {"config": {}, "class_name": "Zeros"}, "beta_initializer": {"config": {}, "class_name": "Zeros"}, "trainable": true, "gamma_regularizer": null}, "class_name": "BatchNormalization", "inbound_nodes": [[["conv4_7_1x1_reduce", 0, 0, {}]]]}, {"name": "activation_44", "config": {"trainable": true, "name": "activation_44", "activation": "relu"}, "class_name": "Activation", "inbound_nodes": [[["conv4_7_1x1_reduce_bn", 0, 0, {}]]]}, {"name": "zero_padding2d_14", "config": {"data_format": "channels_last", "trainable": true, "name": "zero_padding2d_14", "padding": [[2, 2], [2, 2]]}, "class_name": "ZeroPadding2D", "inbound_nodes": [[["activation_44", 0, 0, {}]]]}, {"name": "conv4_7_3x3", "config": {"kernel_regularizer": null, "bias_initializer": {"config": {}, "class_name": "Zeros"}, "name": "conv4_7_3x3", "bias_regularizer": null, "kernel_size": [3, 3], "filters": 256, "activity_regularizer": null, "use_bias": false, "bias_constraint": null, "dilation_rate": [2, 2], "kernel_constraint": null, "padding": "valid", "data_format": "channels_last", "trainable": true, "activation": "linear", "kernel_initializer": {"config": {"seed": null, "distribution": "uniform", "scale": 1.0, "mode": "fan_avg"}, "class_name": "VarianceScaling"}, "strides": [1, 1]}, "class_name": "Conv2D", "inbound_nodes": [[["zero_padding2d_14", 0, 0, {}]]]}, {"name": "conv4_7_3x3_bn", "config": {"center": true, "beta_regularizer": null, "axis": -1, "name": "conv4_7_3x3_bn", "epsilon": 1e-05, "scale": true, "gamma_constraint": null, "moving_variance_initializer": {"config": {}, "class_name": "Ones"}, "gamma_initializer": {"config": {}, "class_name": "Ones"}, "beta_constraint": null, "momentum": 0.95, "moving_mean_initializer": {"config": {}, "class_name": "Zeros"}, "beta_initializer": {"config": {}, "class_name": "Zeros"}, "trainable": true, "gamma_regularizer": null}, "class_name": "BatchNormalization", "inbound_nodes": [[["conv4_7_3x3", 0, 0, {}]]]}, {"name": "activation_45", "config": {"trainable": true, "name": "activation_45", "activation": "relu"}, "class_name": "Activation", "inbound_nodes": [[["conv4_7_3x3_bn", 0, 0, {}]]]}, {"name": "conv4_7_1x1_increase", "config": {"kernel_regularizer": null, "bias_initializer": {"config": {}, "class_name": "Zeros"}, "name": "conv4_7_1x1_increase", "bias_regularizer": null, "kernel_size": [1, 1], "filters": 1024, "activity_regularizer": null, "use_bias": false, "bias_constraint": null, "dilation_rate": [1, 1], "kernel_constraint": null, "padding": "valid", "data_format": "channels_last", "trainable": true, "activation": "linear", "kernel_initializer": {"config": {"seed": null, "distribution": "uniform", "scale": 1.0, "mode": "fan_avg"}, "class_name": "VarianceScaling"}, "strides": [1, 1]}, "class_name": "Conv2D", "inbound_nodes": [[["activation_45", 0, 0, {}]]]}, {"name": "conv4_7_1x1_increase_bn", "config": {"center": true, "beta_regularizer": null, "axis": -1, "name": "conv4_7_1x1_increase_bn", "epsilon": 1e-05, "scale": true, "gamma_constraint": null, "moving_variance_initializer": {"config": {}, "class_name": "Ones"}, "gamma_initializer": {"config": {}, "class_name": "Ones"}, "beta_constraint": null, "momentum": 0.95, "moving_mean_initializer": {"config": {}, "class_name": "Zeros"}, "beta_initializer": {"config": {}, "class_name": "Zeros"}, "trainable": true, "gamma_regularizer": null}, "class_name": "BatchNormalization", "inbound_nodes": [[["conv4_7_1x1_increase", 0, 0, {}]]]}, {"name": "add_14", "config": {"trainable": true, "name": "add_14"}, "class_name": "Add", "inbound_nodes": [[["conv4_7_1x1_increase_bn", 0, 0, {}], ["activation_43", 0, 0, {}]]]}, {"name": "activation_46", "config": {"trainable": true, "name": "activation_46", "activation": "relu"}, "class_name": "Activation", "inbound_nodes": [[["add_14", 0, 0, {}]]]}, {"name": "conv4_8_1x1_reduce", "config": {"kernel_regularizer": null, "bias_initializer": {"config": {}, "class_name": "Zeros"}, "name": "conv4_8_1x1_reduce", "bias_regularizer": null, "kernel_size": [1, 1], "filters": 256, "activity_regularizer": null, "use_bias": false, "bias_constraint": null, "dilation_rate": [1, 1], "kernel_constraint": null, "padding": "valid", "data_format": "channels_last", "trainable": true, "activation": "linear", "kernel_initializer": {"config": {"seed": null, "distribution": "uniform", "scale": 1.0, "mode": "fan_avg"}, "class_name": "VarianceScaling"}, "strides": [1, 1]}, "class_name": "Conv2D", "inbound_nodes": [[["activation_46", 0, 0, {}]]]}, {"name": "conv4_8_1x1_reduce_bn", "config": {"center": true, "beta_regularizer": null, "axis": -1, "name": "conv4_8_1x1_reduce_bn", "epsilon": 1e-05, "scale": true, "gamma_constraint": null, "moving_variance_initializer": {"config": {}, "class_name": "Ones"}, "gamma_initializer": {"config": {}, "class_name": "Ones"}, "beta_constraint": null, "momentum": 0.95, "moving_mean_initializer": {"config": {}, "class_name": "Zeros"}, "beta_initializer": {"config": {}, "class_name": "Zeros"}, "trainable": true, "gamma_regularizer": null}, "class_name": "BatchNormalization", "inbound_nodes": [[["conv4_8_1x1_reduce", 0, 0, {}]]]}, {"name": "activation_47", "config": {"trainable": true, "name": "activation_47", "activation": "relu"}, "class_name": "Activation", "inbound_nodes": [[["conv4_8_1x1_reduce_bn", 0, 0, {}]]]}, {"name": "zero_padding2d_15", "config": {"data_format": "channels_last", "trainable": true, "name": "zero_padding2d_15", "padding": [[2, 2], [2, 2]]}, "class_name": "ZeroPadding2D", "inbound_nodes": [[["activation_47", 0, 0, {}]]]}, {"name": "conv4_8_3x3", "config": {"kernel_regularizer": null, "bias_initializer": {"config": {}, "class_name": "Zeros"}, "name": "conv4_8_3x3", "bias_regularizer": null, "kernel_size": [3, 3], "filters": 256, "activity_regularizer": null, "use_bias": false, "bias_constraint": null, "dilation_rate": [2, 2], "kernel_constraint": null, "padding": "valid", "data_format": "channels_last", "trainable": true, "activation": "linear", "kernel_initializer": {"config": {"seed": null, "distribution": "uniform", "scale": 1.0, "mode": "fan_avg"}, "class_name": "VarianceScaling"}, "strides": [1, 1]}, "class_name": "Conv2D", "inbound_nodes": [[["zero_padding2d_15", 0, 0, {}]]]}, {"name": "conv4_8_3x3_bn", "config": {"center": true, "beta_regularizer": null, "axis": -1, "name": "conv4_8_3x3_bn", "epsilon": 1e-05, "scale": true, "gamma_constraint": null, "moving_variance_initializer": {"config": {}, "class_name": "Ones"}, "gamma_initializer": {"config": {}, "class_name": "Ones"}, "beta_constraint": null, "momentum": 0.95, "moving_mean_initializer": {"config": {}, "class_name": "Zeros"}, "beta_initializer": {"config": {}, "class_name": "Zeros"}, "trainable": true, "gamma_regularizer": null}, "class_name": "BatchNormalization", "inbound_nodes": [[["conv4_8_3x3", 0, 0, {}]]]}, {"name": "activation_48", "config": {"trainable": true, "name": "activation_48", "activation": "relu"}, "class_name": "Activation", "inbound_nodes": [[["conv4_8_3x3_bn", 0, 0, {}]]]}, {"name": "conv4_8_1x1_increase", "config": {"kernel_regularizer": null, "bias_initializer": {"config": {}, "class_name": "Zeros"}, "name": "conv4_8_1x1_increase", "bias_regularizer": null, "kernel_size": [1, 1], "filters": 1024, "activity_regularizer": null, "use_bias": false, "bias_constraint": null, "dilation_rate": [1, 1], "kernel_constraint": null, "padding": "valid", "data_format": "channels_last", "trainable": true, "activation": "linear", "kernel_initializer": {"config": {"seed": null, "distribution": "uniform", "scale": 1.0, "mode": "fan_avg"}, "class_name": "VarianceScaling"}, "strides": [1, 1]}, "class_name": "Conv2D", "inbound_nodes": [[["activation_48", 0, 0, {}]]]}, {"name": "conv4_8_1x1_increase_bn", "config": {"center": true, "beta_regularizer": null, "axis": -1, "name": "conv4_8_1x1_increase_bn", "epsilon": 1e-05, "scale": true, "gamma_constraint": null, "moving_variance_initializer": {"config": {}, "class_name": "Ones"}, "gamma_initializer": {"config": {}, "class_name": "Ones"}, "beta_constraint": null, "momentum": 0.95, "moving_mean_initializer": {"config": {}, "class_name": "Zeros"}, "beta_initializer": {"config": {}, "class_name": "Zeros"}, "trainable": true, "gamma_regularizer": null}, "class_name": "BatchNormalization", "inbound_nodes": [[["conv4_8_1x1_increase", 0, 0, {}]]]}, {"name": "add_15", "config": {"trainable": true, "name": "add_15"}, "class_name": "Add", "inbound_nodes": [[["conv4_8_1x1_increase_bn", 0, 0, {}], ["activation_46", 0, 0, {}]]]}, {"name": "activation_49", "config": {"trainable": true, "name": "activation_49", "activation": "relu"}, "class_name": "Activation", "inbound_nodes": [[["add_15", 0, 0, {}]]]}, {"name": "conv4_9_1x1_reduce", "config": {"kernel_regularizer": null, "bias_initializer": {"config": {}, "class_name": "Zeros"}, "name": "conv4_9_1x1_reduce", "bias_regularizer": null, "kernel_size": [1, 1], "filters": 256, "activity_regularizer": null, "use_bias": false, "bias_constraint": null, "dilation_rate": [1, 1], "kernel_constraint": null, "padding": "valid", "data_format": "channels_last", "trainable": true, "activation": "linear", "kernel_initializer": {"config": {"seed": null, "distribution": "uniform", "scale": 1.0, "mode": "fan_avg"}, "class_name": "VarianceScaling"}, "strides": [1, 1]}, "class_name": "Conv2D", "inbound_nodes": [[["activation_49", 0, 0, {}]]]}, {"name": "conv4_9_1x1_reduce_bn", "config": {"center": true, "beta_regularizer": null, "axis": -1, "name": "conv4_9_1x1_reduce_bn", "epsilon": 1e-05, "scale": true, "gamma_constraint": null, "moving_variance_initializer": {"config": {}, "class_name": "Ones"}, "gamma_initializer": {"config": {}, "class_name": "Ones"}, "beta_constraint": null, "momentum": 0.95, "moving_mean_initializer": {"config": {}, "class_name": "Zeros"}, "beta_initializer": {"config": {}, "class_name": "Zeros"}, "trainable": true, "gamma_regularizer": null}, "class_name": "BatchNormalization", "inbound_nodes": [[["conv4_9_1x1_reduce", 0, 0, {}]]]}, {"name": "activation_50", "config": {"trainable": true, "name": "activation_50", "activation": "relu"}, "class_name": "Activation", "inbound_nodes": [[["conv4_9_1x1_reduce_bn", 0, 0, {}]]]}, {"name": "zero_padding2d_16", "config": {"data_format": "channels_last", "trainable": true, "name": "zero_padding2d_16", "padding": [[2, 2], [2, 2]]}, "class_name": "ZeroPadding2D", "inbound_nodes": [[["activation_50", 0, 0, {}]]]}, {"name": "conv4_9_3x3", "config": {"kernel_regularizer": null, "bias_initializer": {"config": {}, "class_name": "Zeros"}, "name": "conv4_9_3x3", "bias_regularizer": null, "kernel_size": [3, 3], "filters": 256, "activity_regularizer": null, "use_bias": false, "bias_constraint": null, "dilation_rate": [2, 2], "kernel_constraint": null, "padding": "valid", "data_format": "channels_last", "trainable": true, "activation": "linear", "kernel_initializer": {"config": {"seed": null, "distribution": "uniform", "scale": 1.0, "mode": "fan_avg"}, "class_name": "VarianceScaling"}, "strides": [1, 1]}, "class_name": "Conv2D", "inbound_nodes": [[["zero_padding2d_16", 0, 0, {}]]]}, {"name": "conv4_9_3x3_bn", "config": {"center": true, "beta_regularizer": null, "axis": -1, "name": "conv4_9_3x3_bn", "epsilon": 1e-05, "scale": true, "gamma_constraint": null, "moving_variance_initializer": {"config": {}, "class_name": "Ones"}, "gamma_initializer": {"config": {}, "class_name": "Ones"}, "beta_constraint": null, "momentum": 0.95, "moving_mean_initializer": {"config": {}, "class_name": "Zeros"}, "beta_initializer": {"config": {}, "class_name": "Zeros"}, "trainable": true, "gamma_regularizer": null}, "class_name": "BatchNormalization", "inbound_nodes": [[["conv4_9_3x3", 0, 0, {}]]]}, {"name": "activation_51", "config": {"trainable": true, "name": "activation_51", "activation": "relu"}, "class_name": "Activation", "inbound_nodes": [[["conv4_9_3x3_bn", 0, 0, {}]]]}, {"name": "conv4_9_1x1_increase", "config": {"kernel_regularizer": null, "bias_initializer": {"config": {}, "class_name": "Zeros"}, "name": "conv4_9_1x1_increase", "bias_regularizer": null, "kernel_size": [1, 1], "filters": 1024, "activity_regularizer": null, "use_bias": false, "bias_constraint": null, "dilation_rate": [1, 1], "kernel_constraint": null, "padding": "valid", "data_format": "channels_last", "trainable": true, "activation": "linear", "kernel_initializer": {"config": {"seed": null, "distribution": "uniform", "scale": 1.0, "mode": "fan_avg"}, "class_name": "VarianceScaling"}, "strides": [1, 1]}, "class_name": "Conv2D", "inbound_nodes": [[["activation_51", 0, 0, {}]]]}, {"name": "conv4_9_1x1_increase_bn", "config": {"center": true, "beta_regularizer": null, "axis": -1, "name": "conv4_9_1x1_increase_bn", "epsilon": 1e-05, "scale": true, "gamma_constraint": null, "moving_variance_initializer": {"config": {}, "class_name": "Ones"}, "gamma_initializer": {"config": {}, "class_name": "Ones"}, "beta_constraint": null, "momentum": 0.95, "moving_mean_initializer": {"config": {}, "class_name": "Zeros"}, "beta_initializer": {"config": {}, "class_name": "Zeros"}, "trainable": true, "gamma_regularizer": null}, "class_name": "BatchNormalization", "inbound_nodes": [[["conv4_9_1x1_increase", 0, 0, {}]]]}, {"name": "add_16", "config": {"trainable": true, "name": "add_16"}, "class_name": "Add", "inbound_nodes": [[["conv4_9_1x1_increase_bn", 0, 0, {}], ["activation_49", 0, 0, {}]]]}, {"name": "activation_52", "config": {"trainable": true, "name": "activation_52", "activation": "relu"}, "class_name": "Activation", "inbound_nodes": [[["add_16", 0, 0, {}]]]}, {"name": "conv4_10_1x1_reduce", "config": {"kernel_regularizer": null, "bias_initializer": {"config": {}, "class_name": "Zeros"}, "name": "conv4_10_1x1_reduce", "bias_regularizer": null, "kernel_size": [1, 1], "filters": 256, "activity_regularizer": null, "use_bias": false, "bias_constraint": null, "dilation_rate": [1, 1], "kernel_constraint": null, "padding": "valid", "data_format": "channels_last", "trainable": true, "activation": "linear", "kernel_initializer": {"config": {"seed": null, "distribution": "uniform", "scale": 1.0, "mode": "fan_avg"}, "class_name": "VarianceScaling"}, "strides": [1, 1]}, "class_name": "Conv2D", "inbound_nodes": [[["activation_52", 0, 0, {}]]]}, {"name": "conv4_10_1x1_reduce_bn", "config": {"center": true, "beta_regularizer": null, "axis": -1, "name": "conv4_10_1x1_reduce_bn", "epsilon": 1e-05, "scale": true, "gamma_constraint": null, "moving_variance_initializer": {"config": {}, "class_name": "Ones"}, "gamma_initializer": {"config": {}, "class_name": "Ones"}, "beta_constraint": null, "momentum": 0.95, "moving_mean_initializer": {"config": {}, "class_name": "Zeros"}, "beta_initializer": {"config": {}, "class_name": "Zeros"}, "trainable": true, "gamma_regularizer": null}, "class_name": "BatchNormalization", "inbound_nodes": [[["conv4_10_1x1_reduce", 0, 0, {}]]]}, {"name": "activation_53", "config": {"trainable": true, "name": "activation_53", "activation": "relu"}, "class_name": "Activation", "inbound_nodes": [[["conv4_10_1x1_reduce_bn", 0, 0, {}]]]}, {"name": "zero_padding2d_17", "config": {"data_format": "channels_last", "trainable": true, "name": "zero_padding2d_17", "padding": [[2, 2], [2, 2]]}, "class_name": "ZeroPadding2D", "inbound_nodes": [[["activation_53", 0, 0, {}]]]}, {"name": "conv4_10_3x3", "config": {"kernel_regularizer": null, "bias_initializer": {"config": {}, "class_name": "Zeros"}, "name": "conv4_10_3x3", "bias_regularizer": null, "kernel_size": [3, 3], "filters": 256, "activity_regularizer": null, "use_bias": false, "bias_constraint": null, "dilation_rate": [2, 2], "kernel_constraint": null, "padding": "valid", "data_format": "channels_last", "trainable": true, "activation": "linear", "kernel_initializer": {"config": {"seed": null, "distribution": "uniform", "scale": 1.0, "mode": "fan_avg"}, "class_name": "VarianceScaling"}, "strides": [1, 1]}, "class_name": "Conv2D", "inbound_nodes": [[["zero_padding2d_17", 0, 0, {}]]]}, {"name": "conv4_10_3x3_bn", "config": {"center": true, "beta_regularizer": null, "axis": -1, "name": "conv4_10_3x3_bn", "epsilon": 1e-05, "scale": true, "gamma_constraint": null, "moving_variance_initializer": {"config": {}, "class_name": "Ones"}, "gamma_initializer": {"config": {}, "class_name": "Ones"}, "beta_constraint": null, "momentum": 0.95, "moving_mean_initializer": {"config": {}, "class_name": "Zeros"}, "beta_initializer": {"config": {}, "class_name": "Zeros"}, "trainable": true, "gamma_regularizer": null}, "class_name": "BatchNormalization", "inbound_nodes": [[["conv4_10_3x3", 0, 0, {}]]]}, {"name": "activation_54", "config": {"trainable": true, "name": "activation_54", "activation": "relu"}, "class_name": "Activation", "inbound_nodes": [[["conv4_10_3x3_bn", 0, 0, {}]]]}, {"name": "conv4_10_1x1_increase", "config": {"kernel_regularizer": null, "bias_initializer": {"config": {}, "class_name": "Zeros"}, "name": "conv4_10_1x1_increase", "bias_regularizer": null, "kernel_size": [1, 1], "filters": 1024, "activity_regularizer": null, "use_bias": false, "bias_constraint": null, "dilation_rate": [1, 1], "kernel_constraint": null, "padding": "valid", "data_format": "channels_last", "trainable": true, "activation": "linear", "kernel_initializer": {"config": {"seed": null, "distribution": "uniform", "scale": 1.0, "mode": "fan_avg"}, "class_name": "VarianceScaling"}, "strides": [1, 1]}, "class_name": "Conv2D", "inbound_nodes": [[["activation_54", 0, 0, {}]]]}, {"name": "conv4_10_1x1_increase_bn", "config": {"center": true, "beta_regularizer": null, "axis": -1, "name": "conv4_10_1x1_increase_bn", "epsilon": 1e-05, "scale": true, "gamma_constraint": null, "moving_variance_initializer": {"config": {}, "class_name": "Ones"}, "gamma_initializer": {"config": {}, "class_name": "Ones"}, "beta_constraint": null, "momentum": 0.95, "moving_mean_initializer": {"config": {}, "class_name": "Zeros"}, "beta_initializer": {"config": {}, "class_name": "Zeros"}, "trainable": true, "gamma_regularizer": null}, "class_name": "BatchNormalization", "inbound_nodes": [[["conv4_10_1x1_increase", 0, 0, {}]]]}, {"name": "add_17", "config": {"trainable": true, "name": "add_17"}, "class_name": "Add", "inbound_nodes": [[["conv4_10_1x1_increase_bn", 0, 0, {}], ["activation_52", 0, 0, {}]]]}, {"name": "activation_55", "config": {"trainable": true, "name": "activation_55", "activation": "relu"}, "class_name": "Activation", "inbound_nodes": [[["add_17", 0, 0, {}]]]}, {"name": "conv4_11_1x1_reduce", "config": {"kernel_regularizer": null, "bias_initializer": {"config": {}, "class_name": "Zeros"}, "name": "conv4_11_1x1_reduce", "bias_regularizer": null, "kernel_size": [1, 1], "filters": 256, "activity_regularizer": null, "use_bias": false, "bias_constraint": null, "dilation_rate": [1, 1], "kernel_constraint": null, "padding": "valid", "data_format": "channels_last", "trainable": true, "activation": "linear", "kernel_initializer": {"config": {"seed": null, "distribution": "uniform", "scale": 1.0, "mode": "fan_avg"}, "class_name": "VarianceScaling"}, "strides": [1, 1]}, "class_name": "Conv2D", "inbound_nodes": [[["activation_55", 0, 0, {}]]]}, {"name": "conv4_11_1x1_reduce_bn", "config": {"center": true, "beta_regularizer": null, "axis": -1, "name": "conv4_11_1x1_reduce_bn", "epsilon": 1e-05, "scale": true, "gamma_constraint": null, "moving_variance_initializer": {"config": {}, "class_name": "Ones"}, "gamma_initializer": {"config": {}, "class_name": "Ones"}, "beta_constraint": null, "momentum": 0.95, "moving_mean_initializer": {"config": {}, "class_name": "Zeros"}, "beta_initializer": {"config": {}, "class_name": "Zeros"}, "trainable": true, "gamma_regularizer": null}, "class_name": "BatchNormalization", "inbound_nodes": [[["conv4_11_1x1_reduce", 0, 0, {}]]]}, {"name": "activation_56", "config": {"trainable": true, "name": "activation_56", "activation": "relu"}, "class_name": "Activation", "inbound_nodes": [[["conv4_11_1x1_reduce_bn", 0, 0, {}]]]}, {"name": "zero_padding2d_18", "config": {"data_format": "channels_last", "trainable": true, "name": "zero_padding2d_18", "padding": [[2, 2], [2, 2]]}, "class_name": "ZeroPadding2D", "inbound_nodes": [[["activation_56", 0, 0, {}]]]}, {"name": "conv4_11_3x3", "config": {"kernel_regularizer": null, "bias_initializer": {"config": {}, "class_name": "Zeros"}, "name": "conv4_11_3x3", "bias_regularizer": null, "kernel_size": [3, 3], "filters": 256, "activity_regularizer": null, "use_bias": false, "bias_constraint": null, "dilation_rate": [2, 2], "kernel_constraint": null, "padding": "valid", "data_format": "channels_last", "trainable": true, "activation": "linear", "kernel_initializer": {"config": {"seed": null, "distribution": "uniform", "scale": 1.0, "mode": "fan_avg"}, "class_name": "VarianceScaling"}, "strides": [1, 1]}, "class_name": "Conv2D", "inbound_nodes": [[["zero_padding2d_18", 0, 0, {}]]]}, {"name": "conv4_11_3x3_bn", "config": {"center": true, "beta_regularizer": null, "axis": -1, "name": "conv4_11_3x3_bn", "epsilon": 1e-05, "scale": true, "gamma_constraint": null, "moving_variance_initializer": {"config": {}, "class_name": "Ones"}, "gamma_initializer": {"config": {}, "class_name": "Ones"}, "beta_constraint": null, "momentum": 0.95, "moving_mean_initializer": {"config": {}, "class_name": "Zeros"}, "beta_initializer": {"config": {}, "class_name": "Zeros"}, "trainable": true, "gamma_regularizer": null}, "class_name": "BatchNormalization", "inbound_nodes": [[["conv4_11_3x3", 0, 0, {}]]]}, {"name": "activation_57", "config": {"trainable": true, "name": "activation_57", "activation": "relu"}, "class_name": "Activation", "inbound_nodes": [[["conv4_11_3x3_bn", 0, 0, {}]]]}, {"name": "conv4_11_1x1_increase", "config": {"kernel_regularizer": null, "bias_initializer": {"config": {}, "class_name": "Zeros"}, "name": "conv4_11_1x1_increase", "bias_regularizer": null, "kernel_size": [1, 1], "filters": 1024, "activity_regularizer": null, "use_bias": false, "bias_constraint": null, "dilation_rate": [1, 1], "kernel_constraint": null, "padding": "valid", "data_format": "channels_last", "trainable": true, "activation": "linear", "kernel_initializer": {"config": {"seed": null, "distribution": "uniform", "scale": 1.0, "mode": "fan_avg"}, "class_name": "VarianceScaling"}, "strides": [1, 1]}, "class_name": "Conv2D", "inbound_nodes": [[["activation_57", 0, 0, {}]]]}, {"name": "conv4_11_1x1_increase_bn", "config": {"center": true, "beta_regularizer": null, "axis": -1, "name": "conv4_11_1x1_increase_bn", "epsilon": 1e-05, "scale": true, "gamma_constraint": null, "moving_variance_initializer": {"config": {}, "class_name": "Ones"}, "gamma_initializer": {"config": {}, "class_name": "Ones"}, "beta_constraint": null, "momentum": 0.95, "moving_mean_initializer": {"config": {}, "class_name": "Zeros"}, "beta_initializer": {"config": {}, "class_name": "Zeros"}, "trainable": true, "gamma_regularizer": null}, "class_name": "BatchNormalization", "inbound_nodes": [[["conv4_11_1x1_increase", 0, 0, {}]]]}, {"name": "add_18", "config": {"trainable": true, "name": "add_18"}, "class_name": "Add", "inbound_nodes": [[["conv4_11_1x1_increase_bn", 0, 0, {}], ["activation_55", 0, 0, {}]]]}, {"name": "activation_58", "config": {"trainable": true, "name": "activation_58", "activation": "relu"}, "class_name": "Activation", "inbound_nodes": [[["add_18", 0, 0, {}]]]}, {"name": "conv4_12_1x1_reduce", "config": {"kernel_regularizer": null, "bias_initializer": {"config": {}, "class_name": "Zeros"}, "name": "conv4_12_1x1_reduce", "bias_regularizer": null, "kernel_size": [1, 1], "filters": 256, "activity_regularizer": null, "use_bias": false, "bias_constraint": null, "dilation_rate": [1, 1], "kernel_constraint": null, "padding": "valid", "data_format": "channels_last", "trainable": true, "activation": "linear", "kernel_initializer": {"config": {"seed": null, "distribution": "uniform", "scale": 1.0, "mode": "fan_avg"}, "class_name": "VarianceScaling"}, "strides": [1, 1]}, "class_name": "Conv2D", "inbound_nodes": [[["activation_58", 0, 0, {}]]]}, {"name": "conv4_12_1x1_reduce_bn", "config": {"center": true, "beta_regularizer": null, "axis": -1, "name": "conv4_12_1x1_reduce_bn", "epsilon": 1e-05, "scale": true, "gamma_constraint": null, "moving_variance_initializer": {"config": {}, "class_name": "Ones"}, "gamma_initializer": {"config": {}, "class_name": "Ones"}, "beta_constraint": null, "momentum": 0.95, "moving_mean_initializer": {"config": {}, "class_name": "Zeros"}, "beta_initializer": {"config": {}, "class_name": "Zeros"}, "trainable": true, "gamma_regularizer": null}, "class_name": "BatchNormalization", "inbound_nodes": [[["conv4_12_1x1_reduce", 0, 0, {}]]]}, {"name": "activation_59", "config": {"trainable": true, "name": "activation_59", "activation": "relu"}, "class_name": "Activation", "inbound_nodes": [[["conv4_12_1x1_reduce_bn", 0, 0, {}]]]}, {"name": "zero_padding2d_19", "config": {"data_format": "channels_last", "trainable": true, "name": "zero_padding2d_19", "padding": [[2, 2], [2, 2]]}, "class_name": "ZeroPadding2D", "inbound_nodes": [[["activation_59", 0, 0, {}]]]}, {"name": "conv4_12_3x3", "config": {"kernel_regularizer": null, "bias_initializer": {"config": {}, "class_name": "Zeros"}, "name": "conv4_12_3x3", "bias_regularizer": null, "kernel_size": [3, 3], "filters": 256, "activity_regularizer": null, "use_bias": false, "bias_constraint": null, "dilation_rate": [2, 2], "kernel_constraint": null, "padding": "valid", "data_format": "channels_last", "trainable": true, "activation": "linear", "kernel_initializer": {"config": {"seed": null, "distribution": "uniform", "scale": 1.0, "mode": "fan_avg"}, "class_name": "VarianceScaling"}, "strides": [1, 1]}, "class_name": "Conv2D", "inbound_nodes": [[["zero_padding2d_19", 0, 0, {}]]]}, {"name": "conv4_12_3x3_bn", "config": {"center": true, "beta_regularizer": null, "axis": -1, "name": "conv4_12_3x3_bn", "epsilon": 1e-05, "scale": true, "gamma_constraint": null, "moving_variance_initializer": {"config": {}, "class_name": "Ones"}, "gamma_initializer": {"config": {}, "class_name": "Ones"}, "beta_constraint": null, "momentum": 0.95, "moving_mean_initializer": {"config": {}, "class_name": "Zeros"}, "beta_initializer": {"config": {}, "class_name": "Zeros"}, "trainable": true, "gamma_regularizer": null}, "class_name": "BatchNormalization", "inbound_nodes": [[["conv4_12_3x3", 0, 0, {}]]]}, {"name": "activation_60", "config": {"trainable": true, "name": "activation_60", "activation": "relu"}, "class_name": "Activation", "inbound_nodes": [[["conv4_12_3x3_bn", 0, 0, {}]]]}, {"name": "conv4_12_1x1_increase", "config": {"kernel_regularizer": null, "bias_initializer": {"config": {}, "class_name": "Zeros"}, "name": "conv4_12_1x1_increase", "bias_regularizer": null, "kernel_size": [1, 1], "filters": 1024, "activity_regularizer": null, "use_bias": false, "bias_constraint": null, "dilation_rate": [1, 1], "kernel_constraint": null, "padding": "valid", "data_format": "channels_last", "trainable": true, "activation": "linear", "kernel_initializer": {"config": {"seed": null, "distribution": "uniform", "scale": 1.0, "mode": "fan_avg"}, "class_name": "VarianceScaling"}, "strides": [1, 1]}, "class_name": "Conv2D", "inbound_nodes": [[["activation_60", 0, 0, {}]]]}, {"name": "conv4_12_1x1_increase_bn", "config": {"center": true, "beta_regularizer": null, "axis": -1, "name": "conv4_12_1x1_increase_bn", "epsilon": 1e-05, "scale": true, "gamma_constraint": null, "moving_variance_initializer": {"config": {}, "class_name": "Ones"}, "gamma_initializer": {"config": {}, "class_name": "Ones"}, "beta_constraint": null, "momentum": 0.95, "moving_mean_initializer": {"config": {}, "class_name": "Zeros"}, "beta_initializer": {"config": {}, "class_name": "Zeros"}, "trainable": true, "gamma_regularizer": null}, "class_name": "BatchNormalization", "inbound_nodes": [[["conv4_12_1x1_increase", 0, 0, {}]]]}, {"name": "add_19", "config": {"trainable": true, "name": "add_19"}, "class_name": "Add", "inbound_nodes": [[["conv4_12_1x1_increase_bn", 0, 0, {}], ["activation_58", 0, 0, {}]]]}, {"name": "activation_61", "config": {"trainable": true, "name": "activation_61", "activation": "relu"}, "class_name": "Activation", "inbound_nodes": [[["add_19", 0, 0, {}]]]}, {"name": "conv4_13_1x1_reduce", "config": {"kernel_regularizer": null, "bias_initializer": {"config": {}, "class_name": "Zeros"}, "name": "conv4_13_1x1_reduce", "bias_regularizer": null, "kernel_size": [1, 1], "filters": 256, "activity_regularizer": null, "use_bias": false, "bias_constraint": null, "dilation_rate": [1, 1], "kernel_constraint": null, "padding": "valid", "data_format": "channels_last", "trainable": true, "activation": "linear", "kernel_initializer": {"config": {"seed": null, "distribution": "uniform", "scale": 1.0, "mode": "fan_avg"}, "class_name": "VarianceScaling"}, "strides": [1, 1]}, "class_name": "Conv2D", "inbound_nodes": [[["activation_61", 0, 0, {}]]]}, {"name": "conv4_13_1x1_reduce_bn", "config": {"center": true, "beta_regularizer": null, "axis": -1, "name": "conv4_13_1x1_reduce_bn", "epsilon": 1e-05, "scale": true, "gamma_constraint": null, "moving_variance_initializer": {"config": {}, "class_name": "Ones"}, "gamma_initializer": {"config": {}, "class_name": "Ones"}, "beta_constraint": null, "momentum": 0.95, "moving_mean_initializer": {"config": {}, "class_name": "Zeros"}, "beta_initializer": {"config": {}, "class_name": "Zeros"}, "trainable": true, "gamma_regularizer": null}, "class_name": "BatchNormalization", "inbound_nodes": [[["conv4_13_1x1_reduce", 0, 0, {}]]]}, {"name": "activation_62", "config": {"trainable": true, "name": "activation_62", "activation": "relu"}, "class_name": "Activation", "inbound_nodes": [[["conv4_13_1x1_reduce_bn", 0, 0, {}]]]}, {"name": "zero_padding2d_20", "config": {"data_format": "channels_last", "trainable": true, "name": "zero_padding2d_20", "padding": [[2, 2], [2, 2]]}, "class_name": "ZeroPadding2D", "inbound_nodes": [[["activation_62", 0, 0, {}]]]}, {"name": "conv4_13_3x3", "config": {"kernel_regularizer": null, "bias_initializer": {"config": {}, "class_name": "Zeros"}, "name": "conv4_13_3x3", "bias_regularizer": null, "kernel_size": [3, 3], "filters": 256, "activity_regularizer": null, "use_bias": false, "bias_constraint": null, "dilation_rate": [2, 2], "kernel_constraint": null, "padding": "valid", "data_format": "channels_last", "trainable": true, "activation": "linear", "kernel_initializer": {"config": {"seed": null, "distribution": "uniform", "scale": 1.0, "mode": "fan_avg"}, "class_name": "VarianceScaling"}, "strides": [1, 1]}, "class_name": "Conv2D", "inbound_nodes": [[["zero_padding2d_20", 0, 0, {}]]]}, {"name": "conv4_13_3x3_bn", "config": {"center": true, "beta_regularizer": null, "axis": -1, "name": "conv4_13_3x3_bn", "epsilon": 1e-05, "scale": true, "gamma_constraint": null, "moving_variance_initializer": {"config": {}, "class_name": "Ones"}, "gamma_initializer": {"config": {}, "class_name": "Ones"}, "beta_constraint": null, "momentum": 0.95, "moving_mean_initializer": {"config": {}, "class_name": "Zeros"}, "beta_initializer": {"config": {}, "class_name": "Zeros"}, "trainable": true, "gamma_regularizer": null}, "class_name": "BatchNormalization", "inbound_nodes": [[["conv4_13_3x3", 0, 0, {}]]]}, {"name": "activation_63", "config": {"trainable": true, "name": "activation_63", "activation": "relu"}, "class_name": "Activation", "inbound_nodes": [[["conv4_13_3x3_bn", 0, 0, {}]]]}, {"name": "conv4_13_1x1_increase", "config": {"kernel_regularizer": null, "bias_initializer": {"config": {}, "class_name": "Zeros"}, "name": "conv4_13_1x1_increase", "bias_regularizer": null, "kernel_size": [1, 1], "filters": 1024, "activity_regularizer": null, "use_bias": false, "bias_constraint": null, "dilation_rate": [1, 1], "kernel_constraint": null, "padding": "valid", "data_format": "channels_last", "trainable": true, "activation": "linear", "kernel_initializer": {"config": {"seed": null, "distribution": "uniform", "scale": 1.0, "mode": "fan_avg"}, "class_name": "VarianceScaling"}, "strides": [1, 1]}, "class_name": "Conv2D", "inbound_nodes": [[["activation_63", 0, 0, {}]]]}, {"name": "conv4_13_1x1_increase_bn", "config": {"center": true, "beta_regularizer": null, "axis": -1, "name": "conv4_13_1x1_increase_bn", "epsilon": 1e-05, "scale": true, "gamma_constraint": null, "moving_variance_initializer": {"config": {}, "class_name": "Ones"}, "gamma_initializer": {"config": {}, "class_name": "Ones"}, "beta_constraint": null, "momentum": 0.95, "moving_mean_initializer": {"config": {}, "class_name": "Zeros"}, "beta_initializer": {"config": {}, "class_name": "Zeros"}, "trainable": true, "gamma_regularizer": null}, "class_name": "BatchNormalization", "inbound_nodes": [[["conv4_13_1x1_increase", 0, 0, {}]]]}, {"name": "add_20", "config": {"trainable": true, "name": "add_20"}, "class_name": "Add", "inbound_nodes": [[["conv4_13_1x1_increase_bn", 0, 0, {}], ["activation_61", 0, 0, {}]]]}, {"name": "activation_64", "config": {"trainable": true, "name": "activation_64", "activation": "relu"}, "class_name": "Activation", "inbound_nodes": [[["add_20", 0, 0, {}]]]}, {"name": "conv4_14_1x1_reduce", "config": {"kernel_regularizer": null, "bias_initializer": {"config": {}, "class_name": "Zeros"}, "name": "conv4_14_1x1_reduce", "bias_regularizer": null, "kernel_size": [1, 1], "filters": 256, "activity_regularizer": null, "use_bias": false, "bias_constraint": null, "dilation_rate": [1, 1], "kernel_constraint": null, "padding": "valid", "data_format": "channels_last", "trainable": true, "activation": "linear", "kernel_initializer": {"config": {"seed": null, "distribution": "uniform", "scale": 1.0, "mode": "fan_avg"}, "class_name": "VarianceScaling"}, "strides": [1, 1]}, "class_name": "Conv2D", "inbound_nodes": [[["activation_64", 0, 0, {}]]]}, {"name": "conv4_14_1x1_reduce_bn", "config": {"center": true, "beta_regularizer": null, "axis": -1, "name": "conv4_14_1x1_reduce_bn", "epsilon": 1e-05, "scale": true, "gamma_constraint": null, "moving_variance_initializer": {"config": {}, "class_name": "Ones"}, "gamma_initializer": {"config": {}, "class_name": "Ones"}, "beta_constraint": null, "momentum": 0.95, "moving_mean_initializer": {"config": {}, "class_name": "Zeros"}, "beta_initializer": {"config": {}, "class_name": "Zeros"}, "trainable": true, "gamma_regularizer": null}, "class_name": "BatchNormalization", "inbound_nodes": [[["conv4_14_1x1_reduce", 0, 0, {}]]]}, {"name": "activation_65", "config": {"trainable": true, "name": "activation_65", "activation": "relu"}, "class_name": "Activation", "inbound_nodes": [[["conv4_14_1x1_reduce_bn", 0, 0, {}]]]}, {"name": "zero_padding2d_21", "config": {"data_format": "channels_last", "trainable": true, "name": "zero_padding2d_21", "padding": [[2, 2], [2, 2]]}, "class_name": "ZeroPadding2D", "inbound_nodes": [[["activation_65", 0, 0, {}]]]}, {"name": "conv4_14_3x3", "config": {"kernel_regularizer": null, "bias_initializer": {"config": {}, "class_name": "Zeros"}, "name": "conv4_14_3x3", "bias_regularizer": null, "kernel_size": [3, 3], "filters": 256, "activity_regularizer": null, "use_bias": false, "bias_constraint": null, "dilation_rate": [2, 2], "kernel_constraint": null, "padding": "valid", "data_format": "channels_last", "trainable": true, "activation": "linear", "kernel_initializer": {"config": {"seed": null, "distribution": "uniform", "scale": 1.0, "mode": "fan_avg"}, "class_name": "VarianceScaling"}, "strides": [1, 1]}, "class_name": "Conv2D", "inbound_nodes": [[["zero_padding2d_21", 0, 0, {}]]]}, {"name": "conv4_14_3x3_bn", "config": {"center": true, "beta_regularizer": null, "axis": -1, "name": "conv4_14_3x3_bn", "epsilon": 1e-05, "scale": true, "gamma_constraint": null, "moving_variance_initializer": {"config": {}, "class_name": "Ones"}, "gamma_initializer": {"config": {}, "class_name": "Ones"}, "beta_constraint": null, "momentum": 0.95, "moving_mean_initializer": {"config": {}, "class_name": "Zeros"}, "beta_initializer": {"config": {}, "class_name": "Zeros"}, "trainable": true, "gamma_regularizer": null}, "class_name": "BatchNormalization", "inbound_nodes": [[["conv4_14_3x3", 0, 0, {}]]]}, {"name": "activation_66", "config": {"trainable": true, "name": "activation_66", "activation": "relu"}, "class_name": "Activation", "inbound_nodes": [[["conv4_14_3x3_bn", 0, 0, {}]]]}, {"name": "conv4_14_1x1_increase", "config": {"kernel_regularizer": null, "bias_initializer": {"config": {}, "class_name": "Zeros"}, "name": "conv4_14_1x1_increase", "bias_regularizer": null, "kernel_size": [1, 1], "filters": 1024, "activity_regularizer": null, "use_bias": false, "bias_constraint": null, "dilation_rate": [1, 1], "kernel_constraint": null, "padding": "valid", "data_format": "channels_last", "trainable": true, "activation": "linear", "kernel_initializer": {"config": {"seed": null, "distribution": "uniform", "scale": 1.0, "mode": "fan_avg"}, "class_name": "VarianceScaling"}, "strides": [1, 1]}, "class_name": "Conv2D", "inbound_nodes": [[["activation_66", 0, 0, {}]]]}, {"name": "conv4_14_1x1_increase_bn", "config": {"center": true, "beta_regularizer": null, "axis": -1, "name": "conv4_14_1x1_increase_bn", "epsilon": 1e-05, "scale": true, "gamma_constraint": null, "moving_variance_initializer": {"config": {}, "class_name": "Ones"}, "gamma_initializer": {"config": {}, "class_name": "Ones"}, "beta_constraint": null, "momentum": 0.95, "moving_mean_initializer": {"config": {}, "class_name": "Zeros"}, "beta_initializer": {"config": {}, "class_name": "Zeros"}, "trainable": true, "gamma_regularizer": null}, "class_name": "BatchNormalization", "inbound_nodes": [[["conv4_14_1x1_increase", 0, 0, {}]]]}, {"name": "add_21", "config": {"trainable": true, "name": "add_21"}, "class_name": "Add", "inbound_nodes": [[["conv4_14_1x1_increase_bn", 0, 0, {}], ["activation_64", 0, 0, {}]]]}, {"name": "activation_67", "config": {"trainable": true, "name": "activation_67", "activation": "relu"}, "class_name": "Activation", "inbound_nodes": [[["add_21", 0, 0, {}]]]}, {"name": "conv4_15_1x1_reduce", "config": {"kernel_regularizer": null, "bias_initializer": {"config": {}, "class_name": "Zeros"}, "name": "conv4_15_1x1_reduce", "bias_regularizer": null, "kernel_size": [1, 1], "filters": 256, "activity_regularizer": null, "use_bias": false, "bias_constraint": null, "dilation_rate": [1, 1], "kernel_constraint": null, "padding": "valid", "data_format": "channels_last", "trainable": true, "activation": "linear", "kernel_initializer": {"config": {"seed": null, "distribution": "uniform", "scale": 1.0, "mode": "fan_avg"}, "class_name": "VarianceScaling"}, "strides": [1, 1]}, "class_name": "Conv2D", "inbound_nodes": [[["activation_67", 0, 0, {}]]]}, {"name": "conv4_15_1x1_reduce_bn", "config": {"center": true, "beta_regularizer": null, "axis": -1, "name": "conv4_15_1x1_reduce_bn", "epsilon": 1e-05, "scale": true, "gamma_constraint": null, "moving_variance_initializer": {"config": {}, "class_name": "Ones"}, "gamma_initializer": {"config": {}, "class_name": "Ones"}, "beta_constraint": null, "momentum": 0.95, "moving_mean_initializer": {"config": {}, "class_name": "Zeros"}, "beta_initializer": {"config": {}, "class_name": "Zeros"}, "trainable": true, "gamma_regularizer": null}, "class_name": "BatchNormalization", "inbound_nodes": [[["conv4_15_1x1_reduce", 0, 0, {}]]]}, {"name": "activation_68", "config": {"trainable": true, "name": "activation_68", "activation": "relu"}, "class_name": "Activation", "inbound_nodes": [[["conv4_15_1x1_reduce_bn", 0, 0, {}]]]}, {"name": "zero_padding2d_22", "config": {"data_format": "channels_last", "trainable": true, "name": "zero_padding2d_22", "padding": [[2, 2], [2, 2]]}, "class_name": "ZeroPadding2D", "inbound_nodes": [[["activation_68", 0, 0, {}]]]}, {"name": "conv4_15_3x3", "config": {"kernel_regularizer": null, "bias_initializer": {"config": {}, "class_name": "Zeros"}, "name": "conv4_15_3x3", "bias_regularizer": null, "kernel_size": [3, 3], "filters": 256, "activity_regularizer": null, "use_bias": false, "bias_constraint": null, "dilation_rate": [2, 2], "kernel_constraint": null, "padding": "valid", "data_format": "channels_last", "trainable": true, "activation": "linear", "kernel_initializer": {"config": {"seed": null, "distribution": "uniform", "scale": 1.0, "mode": "fan_avg"}, "class_name": "VarianceScaling"}, "strides": [1, 1]}, "class_name": "Conv2D", "inbound_nodes": [[["zero_padding2d_22", 0, 0, {}]]]}, {"name": "conv4_15_3x3_bn", "config": {"center": true, "beta_regularizer": null, "axis": -1, "name": "conv4_15_3x3_bn", "epsilon": 1e-05, "scale": true, "gamma_constraint": null, "moving_variance_initializer": {"config": {}, "class_name": "Ones"}, "gamma_initializer": {"config": {}, "class_name": "Ones"}, "beta_constraint": null, "momentum": 0.95, "moving_mean_initializer": {"config": {}, "class_name": "Zeros"}, "beta_initializer": {"config": {}, "class_name": "Zeros"}, "trainable": true, "gamma_regularizer": null}, "class_name": "BatchNormalization", "inbound_nodes": [[["conv4_15_3x3", 0, 0, {}]]]}, {"name": "activation_69", "config": {"trainable": true, "name": "activation_69", "activation": "relu"}, "class_name": "Activation", "inbound_nodes": [[["conv4_15_3x3_bn", 0, 0, {}]]]}, {"name": "conv4_15_1x1_increase", "config": {"kernel_regularizer": null, "bias_initializer": {"config": {}, "class_name": "Zeros"}, "name": "conv4_15_1x1_increase", "bias_regularizer": null, "kernel_size": [1, 1], "filters": 1024, "activity_regularizer": null, "use_bias": false, "bias_constraint": null, "dilation_rate": [1, 1], "kernel_constraint": null, "padding": "valid", "data_format": "channels_last", "trainable": true, "activation": "linear", "kernel_initializer": {"config": {"seed": null, "distribution": "uniform", "scale": 1.0, "mode": "fan_avg"}, "class_name": "VarianceScaling"}, "strides": [1, 1]}, "class_name": "Conv2D", "inbound_nodes": [[["activation_69", 0, 0, {}]]]}, {"name": "conv4_15_1x1_increase_bn", "config": {"center": true, "beta_regularizer": null, "axis": -1, "name": "conv4_15_1x1_increase_bn", "epsilon": 1e-05, "scale": true, "gamma_constraint": null, "moving_variance_initializer": {"config": {}, "class_name": "Ones"}, "gamma_initializer": {"config": {}, "class_name": "Ones"}, "beta_constraint": null, "momentum": 0.95, "moving_mean_initializer": {"config": {}, "class_name": "Zeros"}, "beta_initializer": {"config": {}, "class_name": "Zeros"}, "trainable": true, "gamma_regularizer": null}, "class_name": "BatchNormalization", "inbound_nodes": [[["conv4_15_1x1_increase", 0, 0, {}]]]}, {"name": "add_22", "config": {"trainable": true, "name": "add_22"}, "class_name": "Add", "inbound_nodes": [[["conv4_15_1x1_increase_bn", 0, 0, {}], ["activation_67", 0, 0, {}]]]}, {"name": "activation_70", "config": {"trainable": true, "name": "activation_70", "activation": "relu"}, "class_name": "Activation", "inbound_nodes": [[["add_22", 0, 0, {}]]]}, {"name": "conv4_16_1x1_reduce", "config": {"kernel_regularizer": null, "bias_initializer": {"config": {}, "class_name": "Zeros"}, "name": "conv4_16_1x1_reduce", "bias_regularizer": null, "kernel_size": [1, 1], "filters": 256, "activity_regularizer": null, "use_bias": false, "bias_constraint": null, "dilation_rate": [1, 1], "kernel_constraint": null, "padding": "valid", "data_format": "channels_last", "trainable": true, "activation": "linear", "kernel_initializer": {"config": {"seed": null, "distribution": "uniform", "scale": 1.0, "mode": "fan_avg"}, "class_name": "VarianceScaling"}, "strides": [1, 1]}, "class_name": "Conv2D", "inbound_nodes": [[["activation_70", 0, 0, {}]]]}, {"name": "conv4_16_1x1_reduce_bn", "config": {"center": true, "beta_regularizer": null, "axis": -1, "name": "conv4_16_1x1_reduce_bn", "epsilon": 1e-05, "scale": true, "gamma_constraint": null, "moving_variance_initializer": {"config": {}, "class_name": "Ones"}, "gamma_initializer": {"config": {}, "class_name": "Ones"}, "beta_constraint": null, "momentum": 0.95, "moving_mean_initializer": {"config": {}, "class_name": "Zeros"}, "beta_initializer": {"config": {}, "class_name": "Zeros"}, "trainable": true, "gamma_regularizer": null}, "class_name": "BatchNormalization", "inbound_nodes": [[["conv4_16_1x1_reduce", 0, 0, {}]]]}, {"name": "activation_71", "config": {"trainable": true, "name": "activation_71", "activation": "relu"}, "class_name": "Activation", "inbound_nodes": [[["conv4_16_1x1_reduce_bn", 0, 0, {}]]]}, {"name": "zero_padding2d_23", "config": {"data_format": "channels_last", "trainable": true, "name": "zero_padding2d_23", "padding": [[2, 2], [2, 2]]}, "class_name": "ZeroPadding2D", "inbound_nodes": [[["activation_71", 0, 0, {}]]]}, {"name": "conv4_16_3x3", "config": {"kernel_regularizer": null, "bias_initializer": {"config": {}, "class_name": "Zeros"}, "name": "conv4_16_3x3", "bias_regularizer": null, "kernel_size": [3, 3], "filters": 256, "activity_regularizer": null, "use_bias": false, "bias_constraint": null, "dilation_rate": [2, 2], "kernel_constraint": null, "padding": "valid", "data_format": "channels_last", "trainable": true, "activation": "linear", "kernel_initializer": {"config": {"seed": null, "distribution": "uniform", "scale": 1.0, "mode": "fan_avg"}, "class_name": "VarianceScaling"}, "strides": [1, 1]}, "class_name": "Conv2D", "inbound_nodes": [[["zero_padding2d_23", 0, 0, {}]]]}, {"name": "conv4_16_3x3_bn", "config": {"center": true, "beta_regularizer": null, "axis": -1, "name": "conv4_16_3x3_bn", "epsilon": 1e-05, "scale": true, "gamma_constraint": null, "moving_variance_initializer": {"config": {}, "class_name": "Ones"}, "gamma_initializer": {"config": {}, "class_name": "Ones"}, "beta_constraint": null, "momentum": 0.95, "moving_mean_initializer": {"config": {}, "class_name": "Zeros"}, "beta_initializer": {"config": {}, "class_name": "Zeros"}, "trainable": true, "gamma_regularizer": null}, "class_name": "BatchNormalization", "inbound_nodes": [[["conv4_16_3x3", 0, 0, {}]]]}, {"name": "activation_72", "config": {"trainable": true, "name": "activation_72", "activation": "relu"}, "class_name": "Activation", "inbound_nodes": [[["conv4_16_3x3_bn", 0, 0, {}]]]}, {"name": "conv4_16_1x1_increase", "config": {"kernel_regularizer": null, "bias_initializer": {"config": {}, "class_name": "Zeros"}, "name": "conv4_16_1x1_increase", "bias_regularizer": null, "kernel_size": [1, 1], "filters": 1024, "activity_regularizer": null, "use_bias": false, "bias_constraint": null, "dilation_rate": [1, 1], "kernel_constraint": null, "padding": "valid", "data_format": "channels_last", "trainable": true, "activation": "linear", "kernel_initializer": {"config": {"seed": null, "distribution": "uniform", "scale": 1.0, "mode": "fan_avg"}, "class_name": "VarianceScaling"}, "strides": [1, 1]}, "class_name": "Conv2D", "inbound_nodes": [[["activation_72", 0, 0, {}]]]}, {"name": "conv4_16_1x1_increase_bn", "config": {"center": true, "beta_regularizer": null, "axis": -1, "name": "conv4_16_1x1_increase_bn", "epsilon": 1e-05, "scale": true, "gamma_constraint": null, "moving_variance_initializer": {"config": {}, "class_name": "Ones"}, "gamma_initializer": {"config": {}, "class_name": "Ones"}, "beta_constraint": null, "momentum": 0.95, "moving_mean_initializer": {"config": {}, "class_name": "Zeros"}, "beta_initializer": {"config": {}, "class_name": "Zeros"}, "trainable": true, "gamma_regularizer": null}, "class_name": "BatchNormalization", "inbound_nodes": [[["conv4_16_1x1_increase", 0, 0, {}]]]}, {"name": "add_23", "config": {"trainable": true, "name": "add_23"}, "class_name": "Add", "inbound_nodes": [[["conv4_16_1x1_increase_bn", 0, 0, {}], ["activation_70", 0, 0, {}]]]}, {"name": "activation_73", "config": {"trainable": true, "name": "activation_73", "activation": "relu"}, "class_name": "Activation", "inbound_nodes": [[["add_23", 0, 0, {}]]]}, {"name": "conv4_17_1x1_reduce", "config": {"kernel_regularizer": null, "bias_initializer": {"config": {}, "class_name": "Zeros"}, "name": "conv4_17_1x1_reduce", "bias_regularizer": null, "kernel_size": [1, 1], "filters": 256, "activity_regularizer": null, "use_bias": false, "bias_constraint": null, "dilation_rate": [1, 1], "kernel_constraint": null, "padding": "valid", "data_format": "channels_last", "trainable": true, "activation": "linear", "kernel_initializer": {"config": {"seed": null, "distribution": "uniform", "scale": 1.0, "mode": "fan_avg"}, "class_name": "VarianceScaling"}, "strides": [1, 1]}, "class_name": "Conv2D", "inbound_nodes": [[["activation_73", 0, 0, {}]]]}, {"name": "conv4_17_1x1_reduce_bn", "config": {"center": true, "beta_regularizer": null, "axis": -1, "name": "conv4_17_1x1_reduce_bn", "epsilon": 1e-05, "scale": true, "gamma_constraint": null, "moving_variance_initializer": {"config": {}, "class_name": "Ones"}, "gamma_initializer": {"config": {}, "class_name": "Ones"}, "beta_constraint": null, "momentum": 0.95, "moving_mean_initializer": {"config": {}, "class_name": "Zeros"}, "beta_initializer": {"config": {}, "class_name": "Zeros"}, "trainable": true, "gamma_regularizer": null}, "class_name": "BatchNormalization", "inbound_nodes": [[["conv4_17_1x1_reduce", 0, 0, {}]]]}, {"name": "activation_74", "config": {"trainable": true, "name": "activation_74", "activation": "relu"}, "class_name": "Activation", "inbound_nodes": [[["conv4_17_1x1_reduce_bn", 0, 0, {}]]]}, {"name": "zero_padding2d_24", "config": {"data_format": "channels_last", "trainable": true, "name": "zero_padding2d_24", "padding": [[2, 2], [2, 2]]}, "class_name": "ZeroPadding2D", "inbound_nodes": [[["activation_74", 0, 0, {}]]]}, {"name": "conv4_17_3x3", "config": {"kernel_regularizer": null, "bias_initializer": {"config": {}, "class_name": "Zeros"}, "name": "conv4_17_3x3", "bias_regularizer": null, "kernel_size": [3, 3], "filters": 256, "activity_regularizer": null, "use_bias": false, "bias_constraint": null, "dilation_rate": [2, 2], "kernel_constraint": null, "padding": "valid", "data_format": "channels_last", "trainable": true, "activation": "linear", "kernel_initializer": {"config": {"seed": null, "distribution": "uniform", "scale": 1.0, "mode": "fan_avg"}, "class_name": "VarianceScaling"}, "strides": [1, 1]}, "class_name": "Conv2D", "inbound_nodes": [[["zero_padding2d_24", 0, 0, {}]]]}, {"name": "conv4_17_3x3_bn", "config": {"center": true, "beta_regularizer": null, "axis": -1, "name": "conv4_17_3x3_bn", "epsilon": 1e-05, "scale": true, "gamma_constraint": null, "moving_variance_initializer": {"config": {}, "class_name": "Ones"}, "gamma_initializer": {"config": {}, "class_name": "Ones"}, "beta_constraint": null, "momentum": 0.95, "moving_mean_initializer": {"config": {}, "class_name": "Zeros"}, "beta_initializer": {"config": {}, "class_name": "Zeros"}, "trainable": true, "gamma_regularizer": null}, "class_name": "BatchNormalization", "inbound_nodes": [[["conv4_17_3x3", 0, 0, {}]]]}, {"name": "activation_75", "config": {"trainable": true, "name": "activation_75", "activation": "relu"}, "class_name": "Activation", "inbound_nodes": [[["conv4_17_3x3_bn", 0, 0, {}]]]}, {"name": "conv4_17_1x1_increase", "config": {"kernel_regularizer": null, "bias_initializer": {"config": {}, "class_name": "Zeros"}, "name": "conv4_17_1x1_increase", "bias_regularizer": null, "kernel_size": [1, 1], "filters": 1024, "activity_regularizer": null, "use_bias": false, "bias_constraint": null, "dilation_rate": [1, 1], "kernel_constraint": null, "padding": "valid", "data_format": "channels_last", "trainable": true, "activation": "linear", "kernel_initializer": {"config": {"seed": null, "distribution": "uniform", "scale": 1.0, "mode": "fan_avg"}, "class_name": "VarianceScaling"}, "strides": [1, 1]}, "class_name": "Conv2D", "inbound_nodes": [[["activation_75", 0, 0, {}]]]}, {"name": "conv4_17_1x1_increase_bn", "config": {"center": true, "beta_regularizer": null, "axis": -1, "name": "conv4_17_1x1_increase_bn", "epsilon": 1e-05, "scale": true, "gamma_constraint": null, "moving_variance_initializer": {"config": {}, "class_name": "Ones"}, "gamma_initializer": {"config": {}, "class_name": "Ones"}, "beta_constraint": null, "momentum": 0.95, "moving_mean_initializer": {"config": {}, "class_name": "Zeros"}, "beta_initializer": {"config": {}, "class_name": "Zeros"}, "trainable": true, "gamma_regularizer": null}, "class_name": "BatchNormalization", "inbound_nodes": [[["conv4_17_1x1_increase", 0, 0, {}]]]}, {"name": "add_24", "config": {"trainable": true, "name": "add_24"}, "class_name": "Add", "inbound_nodes": [[["conv4_17_1x1_increase_bn", 0, 0, {}], ["activation_73", 0, 0, {}]]]}, {"name": "activation_76", "config": {"trainable": true, "name": "activation_76", "activation": "relu"}, "class_name": "Activation", "inbound_nodes": [[["add_24", 0, 0, {}]]]}, {"name": "conv4_18_1x1_reduce", "config": {"kernel_regularizer": null, "bias_initializer": {"config": {}, "class_name": "Zeros"}, "name": "conv4_18_1x1_reduce", "bias_regularizer": null, "kernel_size": [1, 1], "filters": 256, "activity_regularizer": null, "use_bias": false, "bias_constraint": null, "dilation_rate": [1, 1], "kernel_constraint": null, "padding": "valid", "data_format": "channels_last", "trainable": true, "activation": "linear", "kernel_initializer": {"config": {"seed": null, "distribution": "uniform", "scale": 1.0, "mode": "fan_avg"}, "class_name": "VarianceScaling"}, "strides": [1, 1]}, "class_name": "Conv2D", "inbound_nodes": [[["activation_76", 0, 0, {}]]]}, {"name": "conv4_18_1x1_reduce_bn", "config": {"center": true, "beta_regularizer": null, "axis": -1, "name": "conv4_18_1x1_reduce_bn", "epsilon": 1e-05, "scale": true, "gamma_constraint": null, "moving_variance_initializer": {"config": {}, "class_name": "Ones"}, "gamma_initializer": {"config": {}, "class_name": "Ones"}, "beta_constraint": null, "momentum": 0.95, "moving_mean_initializer": {"config": {}, "class_name": "Zeros"}, "beta_initializer": {"config": {}, "class_name": "Zeros"}, "trainable": true, "gamma_regularizer": null}, "class_name": "BatchNormalization", "inbound_nodes": [[["conv4_18_1x1_reduce", 0, 0, {}]]]}, {"name": "activation_77", "config": {"trainable": true, "name": "activation_77", "activation": "relu"}, "class_name": "Activation", "inbound_nodes": [[["conv4_18_1x1_reduce_bn", 0, 0, {}]]]}, {"name": "zero_padding2d_25", "config": {"data_format": "channels_last", "trainable": true, "name": "zero_padding2d_25", "padding": [[2, 2], [2, 2]]}, "class_name": "ZeroPadding2D", "inbound_nodes": [[["activation_77", 0, 0, {}]]]}, {"name": "conv4_18_3x3", "config": {"kernel_regularizer": null, "bias_initializer": {"config": {}, "class_name": "Zeros"}, "name": "conv4_18_3x3", "bias_regularizer": null, "kernel_size": [3, 3], "filters": 256, "activity_regularizer": null, "use_bias": false, "bias_constraint": null, "dilation_rate": [2, 2], "kernel_constraint": null, "padding": "valid", "data_format": "channels_last", "trainable": true, "activation": "linear", "kernel_initializer": {"config": {"seed": null, "distribution": "uniform", "scale": 1.0, "mode": "fan_avg"}, "class_name": "VarianceScaling"}, "strides": [1, 1]}, "class_name": "Conv2D", "inbound_nodes": [[["zero_padding2d_25", 0, 0, {}]]]}, {"name": "conv4_18_3x3_bn", "config": {"center": true, "beta_regularizer": null, "axis": -1, "name": "conv4_18_3x3_bn", "epsilon": 1e-05, "scale": true, "gamma_constraint": null, "moving_variance_initializer": {"config": {}, "class_name": "Ones"}, "gamma_initializer": {"config": {}, "class_name": "Ones"}, "beta_constraint": null, "momentum": 0.95, "moving_mean_initializer": {"config": {}, "class_name": "Zeros"}, "beta_initializer": {"config": {}, "class_name": "Zeros"}, "trainable": true, "gamma_regularizer": null}, "class_name": "BatchNormalization", "inbound_nodes": [[["conv4_18_3x3", 0, 0, {}]]]}, {"name": "activation_78", "config": {"trainable": true, "name": "activation_78", "activation": "relu"}, "class_name": "Activation", "inbound_nodes": [[["conv4_18_3x3_bn", 0, 0, {}]]]}, {"name": "conv4_18_1x1_increase", "config": {"kernel_regularizer": null, "bias_initializer": {"config": {}, "class_name": "Zeros"}, "name": "conv4_18_1x1_increase", "bias_regularizer": null, "kernel_size": [1, 1], "filters": 1024, "activity_regularizer": null, "use_bias": false, "bias_constraint": null, "dilation_rate": [1, 1], "kernel_constraint": null, "padding": "valid", "data_format": "channels_last", "trainable": true, "activation": "linear", "kernel_initializer": {"config": {"seed": null, "distribution": "uniform", "scale": 1.0, "mode": "fan_avg"}, "class_name": "VarianceScaling"}, "strides": [1, 1]}, "class_name": "Conv2D", "inbound_nodes": [[["activation_78", 0, 0, {}]]]}, {"name": "conv4_18_1x1_increase_bn", "config": {"center": true, "beta_regularizer": null, "axis": -1, "name": "conv4_18_1x1_increase_bn", "epsilon": 1e-05, "scale": true, "gamma_constraint": null, "moving_variance_initializer": {"config": {}, "class_name": "Ones"}, "gamma_initializer": {"config": {}, "class_name": "Ones"}, "beta_constraint": null, "momentum": 0.95, "moving_mean_initializer": {"config": {}, "class_name": "Zeros"}, "beta_initializer": {"config": {}, "class_name": "Zeros"}, "trainable": true, "gamma_regularizer": null}, "class_name": "BatchNormalization", "inbound_nodes": [[["conv4_18_1x1_increase", 0, 0, {}]]]}, {"name": "add_25", "config": {"trainable": true, "name": "add_25"}, "class_name": "Add", "inbound_nodes": [[["conv4_18_1x1_increase_bn", 0, 0, {}], ["activation_76", 0, 0, {}]]]}, {"name": "activation_79", "config": {"trainable": true, "name": "activation_79", "activation": "relu"}, "class_name": "Activation", "inbound_nodes": [[["add_25", 0, 0, {}]]]}, {"name": "conv4_19_1x1_reduce", "config": {"kernel_regularizer": null, "bias_initializer": {"config": {}, "class_name": "Zeros"}, "name": "conv4_19_1x1_reduce", "bias_regularizer": null, "kernel_size": [1, 1], "filters": 256, "activity_regularizer": null, "use_bias": false, "bias_constraint": null, "dilation_rate": [1, 1], "kernel_constraint": null, "padding": "valid", "data_format": "channels_last", "trainable": true, "activation": "linear", "kernel_initializer": {"config": {"seed": null, "distribution": "uniform", "scale": 1.0, "mode": "fan_avg"}, "class_name": "VarianceScaling"}, "strides": [1, 1]}, "class_name": "Conv2D", "inbound_nodes": [[["activation_79", 0, 0, {}]]]}, {"name": "conv4_19_1x1_reduce_bn", "config": {"center": true, "beta_regularizer": null, "axis": -1, "name": "conv4_19_1x1_reduce_bn", "epsilon": 1e-05, "scale": true, "gamma_constraint": null, "moving_variance_initializer": {"config": {}, "class_name": "Ones"}, "gamma_initializer": {"config": {}, "class_name": "Ones"}, "beta_constraint": null, "momentum": 0.95, "moving_mean_initializer": {"config": {}, "class_name": "Zeros"}, "beta_initializer": {"config": {}, "class_name": "Zeros"}, "trainable": true, "gamma_regularizer": null}, "class_name": "BatchNormalization", "inbound_nodes": [[["conv4_19_1x1_reduce", 0, 0, {}]]]}, {"name": "activation_80", "config": {"trainable": true, "name": "activation_80", "activation": "relu"}, "class_name": "Activation", "inbound_nodes": [[["conv4_19_1x1_reduce_bn", 0, 0, {}]]]}, {"name": "zero_padding2d_26", "config": {"data_format": "channels_last", "trainable": true, "name": "zero_padding2d_26", "padding": [[2, 2], [2, 2]]}, "class_name": "ZeroPadding2D", "inbound_nodes": [[["activation_80", 0, 0, {}]]]}, {"name": "conv4_19_3x3", "config": {"kernel_regularizer": null, "bias_initializer": {"config": {}, "class_name": "Zeros"}, "name": "conv4_19_3x3", "bias_regularizer": null, "kernel_size": [3, 3], "filters": 256, "activity_regularizer": null, "use_bias": false, "bias_constraint": null, "dilation_rate": [2, 2], "kernel_constraint": null, "padding": "valid", "data_format": "channels_last", "trainable": true, "activation": "linear", "kernel_initializer": {"config": {"seed": null, "distribution": "uniform", "scale": 1.0, "mode": "fan_avg"}, "class_name": "VarianceScaling"}, "strides": [1, 1]}, "class_name": "Conv2D", "inbound_nodes": [[["zero_padding2d_26", 0, 0, {}]]]}, {"name": "conv4_19_3x3_bn", "config": {"center": true, "beta_regularizer": null, "axis": -1, "name": "conv4_19_3x3_bn", "epsilon": 1e-05, "scale": true, "gamma_constraint": null, "moving_variance_initializer": {"config": {}, "class_name": "Ones"}, "gamma_initializer": {"config": {}, "class_name": "Ones"}, "beta_constraint": null, "momentum": 0.95, "moving_mean_initializer": {"config": {}, "class_name": "Zeros"}, "beta_initializer": {"config": {}, "class_name": "Zeros"}, "trainable": true, "gamma_regularizer": null}, "class_name": "BatchNormalization", "inbound_nodes": [[["conv4_19_3x3", 0, 0, {}]]]}, {"name": "activation_81", "config": {"trainable": true, "name": "activation_81", "activation": "relu"}, "class_name": "Activation", "inbound_nodes": [[["conv4_19_3x3_bn", 0, 0, {}]]]}, {"name": "conv4_19_1x1_increase", "config": {"kernel_regularizer": null, "bias_initializer": {"config": {}, "class_name": "Zeros"}, "name": "conv4_19_1x1_increase", "bias_regularizer": null, "kernel_size": [1, 1], "filters": 1024, "activity_regularizer": null, "use_bias": false, "bias_constraint": null, "dilation_rate": [1, 1], "kernel_constraint": null, "padding": "valid", "data_format": "channels_last", "trainable": true, "activation": "linear", "kernel_initializer": {"config": {"seed": null, "distribution": "uniform", "scale": 1.0, "mode": "fan_avg"}, "class_name": "VarianceScaling"}, "strides": [1, 1]}, "class_name": "Conv2D", "inbound_nodes": [[["activation_81", 0, 0, {}]]]}, {"name": "conv4_19_1x1_increase_bn", "config": {"center": true, "beta_regularizer": null, "axis": -1, "name": "conv4_19_1x1_increase_bn", "epsilon": 1e-05, "scale": true, "gamma_constraint": null, "moving_variance_initializer": {"config": {}, "class_name": "Ones"}, "gamma_initializer": {"config": {}, "class_name": "Ones"}, "beta_constraint": null, "momentum": 0.95, "moving_mean_initializer": {"config": {}, "class_name": "Zeros"}, "beta_initializer": {"config": {}, "class_name": "Zeros"}, "trainable": true, "gamma_regularizer": null}, "class_name": "BatchNormalization", "inbound_nodes": [[["conv4_19_1x1_increase", 0, 0, {}]]]}, {"name": "add_26", "config": {"trainable": true, "name": "add_26"}, "class_name": "Add", "inbound_nodes": [[["conv4_19_1x1_increase_bn", 0, 0, {}], ["activation_79", 0, 0, {}]]]}, {"name": "activation_82", "config": {"trainable": true, "name": "activation_82", "activation": "relu"}, "class_name": "Activation", "inbound_nodes": [[["add_26", 0, 0, {}]]]}, {"name": "conv4_20_1x1_reduce", "config": {"kernel_regularizer": null, "bias_initializer": {"config": {}, "class_name": "Zeros"}, "name": "conv4_20_1x1_reduce", "bias_regularizer": null, "kernel_size": [1, 1], "filters": 256, "activity_regularizer": null, "use_bias": false, "bias_constraint": null, "dilation_rate": [1, 1], "kernel_constraint": null, "padding": "valid", "data_format": "channels_last", "trainable": true, "activation": "linear", "kernel_initializer": {"config": {"seed": null, "distribution": "uniform", "scale": 1.0, "mode": "fan_avg"}, "class_name": "VarianceScaling"}, "strides": [1, 1]}, "class_name": "Conv2D", "inbound_nodes": [[["activation_82", 0, 0, {}]]]}, {"name": "conv4_20_1x1_reduce_bn", "config": {"center": true, "beta_regularizer": null, "axis": -1, "name": "conv4_20_1x1_reduce_bn", "epsilon": 1e-05, "scale": true, "gamma_constraint": null, "moving_variance_initializer": {"config": {}, "class_name": "Ones"}, "gamma_initializer": {"config": {}, "class_name": "Ones"}, "beta_constraint": null, "momentum": 0.95, "moving_mean_initializer": {"config": {}, "class_name": "Zeros"}, "beta_initializer": {"config": {}, "class_name": "Zeros"}, "trainable": true, "gamma_regularizer": null}, "class_name": "BatchNormalization", "inbound_nodes": [[["conv4_20_1x1_reduce", 0, 0, {}]]]}, {"name": "activation_83", "config": {"trainable": true, "name": "activation_83", "activation": "relu"}, "class_name": "Activation", "inbound_nodes": [[["conv4_20_1x1_reduce_bn", 0, 0, {}]]]}, {"name": "zero_padding2d_27", "config": {"data_format": "channels_last", "trainable": true, "name": "zero_padding2d_27", "padding": [[2, 2], [2, 2]]}, "class_name": "ZeroPadding2D", "inbound_nodes": [[["activation_83", 0, 0, {}]]]}, {"name": "conv4_20_3x3", "config": {"kernel_regularizer": null, "bias_initializer": {"config": {}, "class_name": "Zeros"}, "name": "conv4_20_3x3", "bias_regularizer": null, "kernel_size": [3, 3], "filters": 256, "activity_regularizer": null, "use_bias": false, "bias_constraint": null, "dilation_rate": [2, 2], "kernel_constraint": null, "padding": "valid", "data_format": "channels_last", "trainable": true, "activation": "linear", "kernel_initializer": {"config": {"seed": null, "distribution": "uniform", "scale": 1.0, "mode": "fan_avg"}, "class_name": "VarianceScaling"}, "strides": [1, 1]}, "class_name": "Conv2D", "inbound_nodes": [[["zero_padding2d_27", 0, 0, {}]]]}, {"name": "conv4_20_3x3_bn", "config": {"center": true, "beta_regularizer": null, "axis": -1, "name": "conv4_20_3x3_bn", "epsilon": 1e-05, "scale": true, "gamma_constraint": null, "moving_variance_initializer": {"config": {}, "class_name": "Ones"}, "gamma_initializer": {"config": {}, "class_name": "Ones"}, "beta_constraint": null, "momentum": 0.95, "moving_mean_initializer": {"config": {}, "class_name": "Zeros"}, "beta_initializer": {"config": {}, "class_name": "Zeros"}, "trainable": true, "gamma_regularizer": null}, "class_name": "BatchNormalization", "inbound_nodes": [[["conv4_20_3x3", 0, 0, {}]]]}, {"name": "activation_84", "config": {"trainable": true, "name": "activation_84", "activation": "relu"}, "class_name": "Activation", "inbound_nodes": [[["conv4_20_3x3_bn", 0, 0, {}]]]}, {"name": "conv4_20_1x1_increase", "config": {"kernel_regularizer": null, "bias_initializer": {"config": {}, "class_name": "Zeros"}, "name": "conv4_20_1x1_increase", "bias_regularizer": null, "kernel_size": [1, 1], "filters": 1024, "activity_regularizer": null, "use_bias": false, "bias_constraint": null, "dilation_rate": [1, 1], "kernel_constraint": null, "padding": "valid", "data_format": "channels_last", "trainable": true, "activation": "linear", "kernel_initializer": {"config": {"seed": null, "distribution": "uniform", "scale": 1.0, "mode": "fan_avg"}, "class_name": "VarianceScaling"}, "strides": [1, 1]}, "class_name": "Conv2D", "inbound_nodes": [[["activation_84", 0, 0, {}]]]}, {"name": "conv4_20_1x1_increase_bn", "config": {"center": true, "beta_regularizer": null, "axis": -1, "name": "conv4_20_1x1_increase_bn", "epsilon": 1e-05, "scale": true, "gamma_constraint": null, "moving_variance_initializer": {"config": {}, "class_name": "Ones"}, "gamma_initializer": {"config": {}, "class_name": "Ones"}, "beta_constraint": null, "momentum": 0.95, "moving_mean_initializer": {"config": {}, "class_name": "Zeros"}, "beta_initializer": {"config": {}, "class_name": "Zeros"}, "trainable": true, "gamma_regularizer": null}, "class_name": "BatchNormalization", "inbound_nodes": [[["conv4_20_1x1_increase", 0, 0, {}]]]}, {"name": "add_27", "config": {"trainable": true, "name": "add_27"}, "class_name": "Add", "inbound_nodes": [[["conv4_20_1x1_increase_bn", 0, 0, {}], ["activation_82", 0, 0, {}]]]}, {"name": "activation_85", "config": {"trainable": true, "name": "activation_85", "activation": "relu"}, "class_name": "Activation", "inbound_nodes": [[["add_27", 0, 0, {}]]]}, {"name": "conv4_21_1x1_reduce", "config": {"kernel_regularizer": null, "bias_initializer": {"config": {}, "class_name": "Zeros"}, "name": "conv4_21_1x1_reduce", "bias_regularizer": null, "kernel_size": [1, 1], "filters": 256, "activity_regularizer": null, "use_bias": false, "bias_constraint": null, "dilation_rate": [1, 1], "kernel_constraint": null, "padding": "valid", "data_format": "channels_last", "trainable": true, "activation": "linear", "kernel_initializer": {"config": {"seed": null, "distribution": "uniform", "scale": 1.0, "mode": "fan_avg"}, "class_name": "VarianceScaling"}, "strides": [1, 1]}, "class_name": "Conv2D", "inbound_nodes": [[["activation_85", 0, 0, {}]]]}, {"name": "conv4_21_1x1_reduce_bn", "config": {"center": true, "beta_regularizer": null, "axis": -1, "name": "conv4_21_1x1_reduce_bn", "epsilon": 1e-05, "scale": true, "gamma_constraint": null, "moving_variance_initializer": {"config": {}, "class_name": "Ones"}, "gamma_initializer": {"config": {}, "class_name": "Ones"}, "beta_constraint": null, "momentum": 0.95, "moving_mean_initializer": {"config": {}, "class_name": "Zeros"}, "beta_initializer": {"config": {}, "class_name": "Zeros"}, "trainable": true, "gamma_regularizer": null}, "class_name": "BatchNormalization", "inbound_nodes": [[["conv4_21_1x1_reduce", 0, 0, {}]]]}, {"name": "activation_86", "config": {"trainable": true, "name": "activation_86", "activation": "relu"}, "class_name": "Activation", "inbound_nodes": [[["conv4_21_1x1_reduce_bn", 0, 0, {}]]]}, {"name": "zero_padding2d_28", "config": {"data_format": "channels_last", "trainable": true, "name": "zero_padding2d_28", "padding": [[2, 2], [2, 2]]}, "class_name": "ZeroPadding2D", "inbound_nodes": [[["activation_86", 0, 0, {}]]]}, {"name": "conv4_21_3x3", "config": {"kernel_regularizer": null, "bias_initializer": {"config": {}, "class_name": "Zeros"}, "name": "conv4_21_3x3", "bias_regularizer": null, "kernel_size": [3, 3], "filters": 256, "activity_regularizer": null, "use_bias": false, "bias_constraint": null, "dilation_rate": [2, 2], "kernel_constraint": null, "padding": "valid", "data_format": "channels_last", "trainable": true, "activation": "linear", "kernel_initializer": {"config": {"seed": null, "distribution": "uniform", "scale": 1.0, "mode": "fan_avg"}, "class_name": "VarianceScaling"}, "strides": [1, 1]}, "class_name": "Conv2D", "inbound_nodes": [[["zero_padding2d_28", 0, 0, {}]]]}, {"name": "conv4_21_3x3_bn", "config": {"center": true, "beta_regularizer": null, "axis": -1, "name": "conv4_21_3x3_bn", "epsilon": 1e-05, "scale": true, "gamma_constraint": null, "moving_variance_initializer": {"config": {}, "class_name": "Ones"}, "gamma_initializer": {"config": {}, "class_name": "Ones"}, "beta_constraint": null, "momentum": 0.95, "moving_mean_initializer": {"config": {}, "class_name": "Zeros"}, "beta_initializer": {"config": {}, "class_name": "Zeros"}, "trainable": true, "gamma_regularizer": null}, "class_name": "BatchNormalization", "inbound_nodes": [[["conv4_21_3x3", 0, 0, {}]]]}, {"name": "activation_87", "config": {"trainable": true, "name": "activation_87", "activation": "relu"}, "class_name": "Activation", "inbound_nodes": [[["conv4_21_3x3_bn", 0, 0, {}]]]}, {"name": "conv4_21_1x1_increase", "config": {"kernel_regularizer": null, "bias_initializer": {"config": {}, "class_name": "Zeros"}, "name": "conv4_21_1x1_increase", "bias_regularizer": null, "kernel_size": [1, 1], "filters": 1024, "activity_regularizer": null, "use_bias": false, "bias_constraint": null, "dilation_rate": [1, 1], "kernel_constraint": null, "padding": "valid", "data_format": "channels_last", "trainable": true, "activation": "linear", "kernel_initializer": {"config": {"seed": null, "distribution": "uniform", "scale": 1.0, "mode": "fan_avg"}, "class_name": "VarianceScaling"}, "strides": [1, 1]}, "class_name": "Conv2D", "inbound_nodes": [[["activation_87", 0, 0, {}]]]}, {"name": "conv4_21_1x1_increase_bn", "config": {"center": true, "beta_regularizer": null, "axis": -1, "name": "conv4_21_1x1_increase_bn", "epsilon": 1e-05, "scale": true, "gamma_constraint": null, "moving_variance_initializer": {"config": {}, "class_name": "Ones"}, "gamma_initializer": {"config": {}, "class_name": "Ones"}, "beta_constraint": null, "momentum": 0.95, "moving_mean_initializer": {"config": {}, "class_name": "Zeros"}, "beta_initializer": {"config": {}, "class_name": "Zeros"}, "trainable": true, "gamma_regularizer": null}, "class_name": "BatchNormalization", "inbound_nodes": [[["conv4_21_1x1_increase", 0, 0, {}]]]}, {"name": "add_28", "config": {"trainable": true, "name": "add_28"}, "class_name": "Add", "inbound_nodes": [[["conv4_21_1x1_increase_bn", 0, 0, {}], ["activation_85", 0, 0, {}]]]}, {"name": "activation_88", "config": {"trainable": true, "name": "activation_88", "activation": "relu"}, "class_name": "Activation", "inbound_nodes": [[["add_28", 0, 0, {}]]]}, {"name": "conv4_22_1x1_reduce", "config": {"kernel_regularizer": null, "bias_initializer": {"config": {}, "class_name": "Zeros"}, "name": "conv4_22_1x1_reduce", "bias_regularizer": null, "kernel_size": [1, 1], "filters": 256, "activity_regularizer": null, "use_bias": false, "bias_constraint": null, "dilation_rate": [1, 1], "kernel_constraint": null, "padding": "valid", "data_format": "channels_last", "trainable": true, "activation": "linear", "kernel_initializer": {"config": {"seed": null, "distribution": "uniform", "scale": 1.0, "mode": "fan_avg"}, "class_name": "VarianceScaling"}, "strides": [1, 1]}, "class_name": "Conv2D", "inbound_nodes": [[["activation_88", 0, 0, {}]]]}, {"name": "conv4_22_1x1_reduce_bn", "config": {"center": true, "beta_regularizer": null, "axis": -1, "name": "conv4_22_1x1_reduce_bn", "epsilon": 1e-05, "scale": true, "gamma_constraint": null, "moving_variance_initializer": {"config": {}, "class_name": "Ones"}, "gamma_initializer": {"config": {}, "class_name": "Ones"}, "beta_constraint": null, "momentum": 0.95, "moving_mean_initializer": {"config": {}, "class_name": "Zeros"}, "beta_initializer": {"config": {}, "class_name": "Zeros"}, "trainable": true, "gamma_regularizer": null}, "class_name": "BatchNormalization", "inbound_nodes": [[["conv4_22_1x1_reduce", 0, 0, {}]]]}, {"name": "activation_89", "config": {"trainable": true, "name": "activation_89", "activation": "relu"}, "class_name": "Activation", "inbound_nodes": [[["conv4_22_1x1_reduce_bn", 0, 0, {}]]]}, {"name": "zero_padding2d_29", "config": {"data_format": "channels_last", "trainable": true, "name": "zero_padding2d_29", "padding": [[2, 2], [2, 2]]}, "class_name": "ZeroPadding2D", "inbound_nodes": [[["activation_89", 0, 0, {}]]]}, {"name": "conv4_22_3x3", "config": {"kernel_regularizer": null, "bias_initializer": {"config": {}, "class_name": "Zeros"}, "name": "conv4_22_3x3", "bias_regularizer": null, "kernel_size": [3, 3], "filters": 256, "activity_regularizer": null, "use_bias": false, "bias_constraint": null, "dilation_rate": [2, 2], "kernel_constraint": null, "padding": "valid", "data_format": "channels_last", "trainable": true, "activation": "linear", "kernel_initializer": {"config": {"seed": null, "distribution": "uniform", "scale": 1.0, "mode": "fan_avg"}, "class_name": "VarianceScaling"}, "strides": [1, 1]}, "class_name": "Conv2D", "inbound_nodes": [[["zero_padding2d_29", 0, 0, {}]]]}, {"name": "conv4_22_3x3_bn", "config": {"center": true, "beta_regularizer": null, "axis": -1, "name": "conv4_22_3x3_bn", "epsilon": 1e-05, "scale": true, "gamma_constraint": null, "moving_variance_initializer": {"config": {}, "class_name": "Ones"}, "gamma_initializer": {"config": {}, "class_name": "Ones"}, "beta_constraint": null, "momentum": 0.95, "moving_mean_initializer": {"config": {}, "class_name": "Zeros"}, "beta_initializer": {"config": {}, "class_name": "Zeros"}, "trainable": true, "gamma_regularizer": null}, "class_name": "BatchNormalization", "inbound_nodes": [[["conv4_22_3x3", 0, 0, {}]]]}, {"name": "activation_90", "config": {"trainable": true, "name": "activation_90", "activation": "relu"}, "class_name": "Activation", "inbound_nodes": [[["conv4_22_3x3_bn", 0, 0, {}]]]}, {"name": "conv4_22_1x1_increase", "config": {"kernel_regularizer": null, "bias_initializer": {"config": {}, "class_name": "Zeros"}, "name": "conv4_22_1x1_increase", "bias_regularizer": null, "kernel_size": [1, 1], "filters": 1024, "activity_regularizer": null, "use_bias": false, "bias_constraint": null, "dilation_rate": [1, 1], "kernel_constraint": null, "padding": "valid", "data_format": "channels_last", "trainable": true, "activation": "linear", "kernel_initializer": {"config": {"seed": null, "distribution": "uniform", "scale": 1.0, "mode": "fan_avg"}, "class_name": "VarianceScaling"}, "strides": [1, 1]}, "class_name": "Conv2D", "inbound_nodes": [[["activation_90", 0, 0, {}]]]}, {"name": "conv4_22_1x1_increase_bn", "config": {"center": true, "beta_regularizer": null, "axis": -1, "name": "conv4_22_1x1_increase_bn", "epsilon": 1e-05, "scale": true, "gamma_constraint": null, "moving_variance_initializer": {"config": {}, "class_name": "Ones"}, "gamma_initializer": {"config": {}, "class_name": "Ones"}, "beta_constraint": null, "momentum": 0.95, "moving_mean_initializer": {"config": {}, "class_name": "Zeros"}, "beta_initializer": {"config": {}, "class_name": "Zeros"}, "trainable": true, "gamma_regularizer": null}, "class_name": "BatchNormalization", "inbound_nodes": [[["conv4_22_1x1_increase", 0, 0, {}]]]}, {"name": "add_29", "config": {"trainable": true, "name": "add_29"}, "class_name": "Add", "inbound_nodes": [[["conv4_22_1x1_increase_bn", 0, 0, {}], ["activation_88", 0, 0, {}]]]}, {"name": "activation_91", "config": {"trainable": true, "name": "activation_91", "activation": "relu"}, "class_name": "Activation", "inbound_nodes": [[["add_29", 0, 0, {}]]]}, {"name": "conv4_23_1x1_reduce", "config": {"kernel_regularizer": null, "bias_initializer": {"config": {}, "class_name": "Zeros"}, "name": "conv4_23_1x1_reduce", "bias_regularizer": null, "kernel_size": [1, 1], "filters": 256, "activity_regularizer": null, "use_bias": false, "bias_constraint": null, "dilation_rate": [1, 1], "kernel_constraint": null, "padding": "valid", "data_format": "channels_last", "trainable": true, "activation": "linear", "kernel_initializer": {"config": {"seed": null, "distribution": "uniform", "scale": 1.0, "mode": "fan_avg"}, "class_name": "VarianceScaling"}, "strides": [1, 1]}, "class_name": "Conv2D", "inbound_nodes": [[["activation_91", 0, 0, {}]]]}, {"name": "conv4_23_1x1_reduce_bn", "config": {"center": true, "beta_regularizer": null, "axis": -1, "name": "conv4_23_1x1_reduce_bn", "epsilon": 1e-05, "scale": true, "gamma_constraint": null, "moving_variance_initializer": {"config": {}, "class_name": "Ones"}, "gamma_initializer": {"config": {}, "class_name": "Ones"}, "beta_constraint": null, "momentum": 0.95, "moving_mean_initializer": {"config": {}, "class_name": "Zeros"}, "beta_initializer": {"config": {}, "class_name": "Zeros"}, "trainable": true, "gamma_regularizer": null}, "class_name": "BatchNormalization", "inbound_nodes": [[["conv4_23_1x1_reduce", 0, 0, {}]]]}, {"name": "activation_92", "config": {"trainable": true, "name": "activation_92", "activation": "relu"}, "class_name": "Activation", "inbound_nodes": [[["conv4_23_1x1_reduce_bn", 0, 0, {}]]]}, {"name": "zero_padding2d_30", "config": {"data_format": "channels_last", "trainable": true, "name": "zero_padding2d_30", "padding": [[2, 2], [2, 2]]}, "class_name": "ZeroPadding2D", "inbound_nodes": [[["activation_92", 0, 0, {}]]]}, {"name": "conv4_23_3x3", "config": {"kernel_regularizer": null, "bias_initializer": {"config": {}, "class_name": "Zeros"}, "name": "conv4_23_3x3", "bias_regularizer": null, "kernel_size": [3, 3], "filters": 256, "activity_regularizer": null, "use_bias": false, "bias_constraint": null, "dilation_rate": [2, 2], "kernel_constraint": null, "padding": "valid", "data_format": "channels_last", "trainable": true, "activation": "linear", "kernel_initializer": {"config": {"seed": null, "distribution": "uniform", "scale": 1.0, "mode": "fan_avg"}, "class_name": "VarianceScaling"}, "strides": [1, 1]}, "class_name": "Conv2D", "inbound_nodes": [[["zero_padding2d_30", 0, 0, {}]]]}, {"name": "conv4_23_3x3_bn", "config": {"center": true, "beta_regularizer": null, "axis": -1, "name": "conv4_23_3x3_bn", "epsilon": 1e-05, "scale": true, "gamma_constraint": null, "moving_variance_initializer": {"config": {}, "class_name": "Ones"}, "gamma_initializer": {"config": {}, "class_name": "Ones"}, "beta_constraint": null, "momentum": 0.95, "moving_mean_initializer": {"config": {}, "class_name": "Zeros"}, "beta_initializer": {"config": {}, "class_name": "Zeros"}, "trainable": true, "gamma_regularizer": null}, "class_name": "BatchNormalization", "inbound_nodes": [[["conv4_23_3x3", 0, 0, {}]]]}, {"name": "activation_93", "config": {"trainable": true, "name": "activation_93", "activation": "relu"}, "class_name": "Activation", "inbound_nodes": [[["conv4_23_3x3_bn", 0, 0, {}]]]}, {"name": "conv4_23_1x1_increase", "config": {"kernel_regularizer": null, "bias_initializer": {"config": {}, "class_name": "Zeros"}, "name": "conv4_23_1x1_increase", "bias_regularizer": null, "kernel_size": [1, 1], "filters": 1024, "activity_regularizer": null, "use_bias": false, "bias_constraint": null, "dilation_rate": [1, 1], "kernel_constraint": null, "padding": "valid", "data_format": "channels_last", "trainable": true, "activation": "linear", "kernel_initializer": {"config": {"seed": null, "distribution": "uniform", "scale": 1.0, "mode": "fan_avg"}, "class_name": "VarianceScaling"}, "strides": [1, 1]}, "class_name": "Conv2D", "inbound_nodes": [[["activation_93", 0, 0, {}]]]}, {"name": "conv4_23_1x1_increase_bn", "config": {"center": true, "beta_regularizer": null, "axis": -1, "name": "conv4_23_1x1_increase_bn", "epsilon": 1e-05, "scale": true, "gamma_constraint": null, "moving_variance_initializer": {"config": {}, "class_name": "Ones"}, "gamma_initializer": {"config": {}, "class_name": "Ones"}, "beta_constraint": null, "momentum": 0.95, "moving_mean_initializer": {"config": {}, "class_name": "Zeros"}, "beta_initializer": {"config": {}, "class_name": "Zeros"}, "trainable": true, "gamma_regularizer": null}, "class_name": "BatchNormalization", "inbound_nodes": [[["conv4_23_1x1_increase", 0, 0, {}]]]}, {"name": "add_30", "config": {"trainable": true, "name": "add_30"}, "class_name": "Add", "inbound_nodes": [[["conv4_23_1x1_increase_bn", 0, 0, {}], ["activation_91", 0, 0, {}]]]}, {"name": "activation_94", "config": {"trainable": true, "name": "activation_94", "activation": "relu"}, "class_name": "Activation", "inbound_nodes": [[["add_30", 0, 0, {}]]]}, {"name": "conv5_1_1x1_reduce", "config": {"kernel_regularizer": null, "bias_initializer": {"config": {}, "class_name": "Zeros"}, "name": "conv5_1_1x1_reduce", "bias_regularizer": null, "kernel_size": [1, 1], "filters": 512, "activity_regularizer": null, "use_bias": false, "bias_constraint": null, "dilation_rate": [1, 1], "kernel_constraint": null, "padding": "valid", "data_format": "channels_last", "trainable": true, "activation": "linear", "kernel_initializer": {"config": {"seed": null, "distribution": "uniform", "scale": 1.0, "mode": "fan_avg"}, "class_name": "VarianceScaling"}, "strides": [1, 1]}, "class_name": "Conv2D", "inbound_nodes": [[["activation_94", 0, 0, {}]]]}, {"name": "conv5_1_1x1_reduce_bn", "config": {"center": true, "beta_regularizer": null, "axis": -1, "name": "conv5_1_1x1_reduce_bn", "epsilon": 1e-05, "scale": true, "gamma_constraint": null, "moving_variance_initializer": {"config": {}, "class_name": "Ones"}, "gamma_initializer": {"config": {}, "class_name": "Ones"}, "beta_constraint": null, "momentum": 0.95, "moving_mean_initializer": {"config": {}, "class_name": "Zeros"}, "beta_initializer": {"config": {}, "class_name": "Zeros"}, "trainable": true, "gamma_regularizer": null}, "class_name": "BatchNormalization", "inbound_nodes": [[["conv5_1_1x1_reduce", 0, 0, {}]]]}, {"name": "activation_95", "config": {"trainable": true, "name": "activation_95", "activation": "relu"}, "class_name": "Activation", "inbound_nodes": [[["conv5_1_1x1_reduce_bn", 0, 0, {}]]]}, {"name": "zero_padding2d_31", "config": {"data_format": "channels_last", "trainable": true, "name": "zero_padding2d_31", "padding": [[4, 4], [4, 4]]}, "class_name": "ZeroPadding2D", "inbound_nodes": [[["activation_95", 0, 0, {}]]]}, {"name": "conv5_1_3x3", "config": {"kernel_regularizer": null, "bias_initializer": {"config": {}, "class_name": "Zeros"}, "name": "conv5_1_3x3", "bias_regularizer": null, "kernel_size": [3, 3], "filters": 512, "activity_regularizer": null, "use_bias": false, "bias_constraint": null, "dilation_rate": [4, 4], "kernel_constraint": null, "padding": "valid", "data_format": "channels_last", "trainable": true, "activation": "linear", "kernel_initializer": {"config": {"seed": null, "distribution": "uniform", "scale": 1.0, "mode": "fan_avg"}, "class_name": "VarianceScaling"}, "strides": [1, 1]}, "class_name": "Conv2D", "inbound_nodes": [[["zero_padding2d_31", 0, 0, {}]]]}, {"name": "conv5_1_3x3_bn", "config": {"center": true, "beta_regularizer": null, "axis": -1, "name": "conv5_1_3x3_bn", "epsilon": 1e-05, "scale": true, "gamma_constraint": null, "moving_variance_initializer": {"config": {}, "class_name": "Ones"}, "gamma_initializer": {"config": {}, "class_name": "Ones"}, "beta_constraint": null, "momentum": 0.95, "moving_mean_initializer": {"config": {}, "class_name": "Zeros"}, "beta_initializer": {"config": {}, "class_name": "Zeros"}, "trainable": true, "gamma_regularizer": null}, "class_name": "BatchNormalization", "inbound_nodes": [[["conv5_1_3x3", 0, 0, {}]]]}, {"name": "activation_96", "config": {"trainable": true, "name": "activation_96", "activation": "relu"}, "class_name": "Activation", "inbound_nodes": [[["conv5_1_3x3_bn", 0, 0, {}]]]}, {"name": "conv5_1_1x1_increase", "config": {"kernel_regularizer": null, "bias_initializer": {"config": {}, "class_name": "Zeros"}, "name": "conv5_1_1x1_increase", "bias_regularizer": null, "kernel_size": [1, 1], "filters": 2048, "activity_regularizer": null, "use_bias": false, "bias_constraint": null, "dilation_rate": [1, 1], "kernel_constraint": null, "padding": "valid", "data_format": "channels_last", "trainable": true, "activation": "linear", "kernel_initializer": {"config": {"seed": null, "distribution": "uniform", "scale": 1.0, "mode": "fan_avg"}, "class_name": "VarianceScaling"}, "strides": [1, 1]}, "class_name": "Conv2D", "inbound_nodes": [[["activation_96", 0, 0, {}]]]}, {"name": "conv5_1_1x1_proj", "config": {"kernel_regularizer": null, "bias_initializer": {"config": {}, "class_name": "Zeros"}, "name": "conv5_1_1x1_proj", "bias_regularizer": null, "kernel_size": [1, 1], "filters": 2048, "activity_regularizer": null, "use_bias": false, "bias_constraint": null, "dilation_rate": [1, 1], "kernel_constraint": null, "padding": "valid", "data_format": "channels_last", "trainable": true, "activation": "linear", "kernel_initializer": {"config": {"seed": null, "distribution": "uniform", "scale": 1.0, "mode": "fan_avg"}, "class_name": "VarianceScaling"}, "strides": [1, 1]}, "class_name": "Conv2D", "inbound_nodes": [[["activation_94", 0, 0, {}]]]}, {"name": "conv5_1_1x1_increase_bn", "config": {"center": true, "beta_regularizer": null, "axis": -1, "name": "conv5_1_1x1_increase_bn", "epsilon": 1e-05, "scale": true, "gamma_constraint": null, "moving_variance_initializer": {"config": {}, "class_name": "Ones"}, "gamma_initializer": {"config": {}, "class_name": "Ones"}, "beta_constraint": null, "momentum": 0.95, "moving_mean_initializer": {"config": {}, "class_name": "Zeros"}, "beta_initializer": {"config": {}, "class_name": "Zeros"}, "trainable": true, "gamma_regularizer": null}, "class_name": "BatchNormalization", "inbound_nodes": [[["conv5_1_1x1_increase", 0, 0, {}]]]}, {"name": "conv5_1_1x1_proj_bn", "config": {"center": true, "beta_regularizer": null, "axis": -1, "name": "conv5_1_1x1_proj_bn", "epsilon": 1e-05, "scale": true, "gamma_constraint": null, "moving_variance_initializer": {"config": {}, "class_name": "Ones"}, "gamma_initializer": {"config": {}, "class_name": "Ones"}, "beta_constraint": null, "momentum": 0.95, "moving_mean_initializer": {"config": {}, "class_name": "Zeros"}, "beta_initializer": {"config": {}, "class_name": "Zeros"}, "trainable": true, "gamma_regularizer": null}, "class_name": "BatchNormalization", "inbound_nodes": [[["conv5_1_1x1_proj", 0, 0, {}]]]}, {"name": "add_31", "config": {"trainable": true, "name": "add_31"}, "class_name": "Add", "inbound_nodes": [[["conv5_1_1x1_increase_bn", 0, 0, {}], ["conv5_1_1x1_proj_bn", 0, 0, {}]]]}, {"name": "activation_97", "config": {"trainable": true, "name": "activation_97", "activation": "relu"}, "class_name": "Activation", "inbound_nodes": [[["add_31", 0, 0, {}]]]}, {"name": "conv5_2_1x1_reduce", "config": {"kernel_regularizer": null, "bias_initializer": {"config": {}, "class_name": "Zeros"}, "name": "conv5_2_1x1_reduce", "bias_regularizer": null, "kernel_size": [1, 1], "filters": 512, "activity_regularizer": null, "use_bias": false, "bias_constraint": null, "dilation_rate": [1, 1], "kernel_constraint": null, "padding": "valid", "data_format": "channels_last", "trainable": true, "activation": "linear", "kernel_initializer": {"config": {"seed": null, "distribution": "uniform", "scale": 1.0, "mode": "fan_avg"}, "class_name": "VarianceScaling"}, "strides": [1, 1]}, "class_name": "Conv2D", "inbound_nodes": [[["activation_97", 0, 0, {}]]]}, {"name": "conv5_2_1x1_reduce_bn", "config": {"center": true, "beta_regularizer": null, "axis": -1, "name": "conv5_2_1x1_reduce_bn", "epsilon": 1e-05, "scale": true, "gamma_constraint": null, "moving_variance_initializer": {"config": {}, "class_name": "Ones"}, "gamma_initializer": {"config": {}, "class_name": "Ones"}, "beta_constraint": null, "momentum": 0.95, "moving_mean_initializer": {"config": {}, "class_name": "Zeros"}, "beta_initializer": {"config": {}, "class_name": "Zeros"}, "trainable": true, "gamma_regularizer": null}, "class_name": "BatchNormalization", "inbound_nodes": [[["conv5_2_1x1_reduce", 0, 0, {}]]]}, {"name": "activation_98", "config": {"trainable": true, "name": "activation_98", "activation": "relu"}, "class_name": "Activation", "inbound_nodes": [[["conv5_2_1x1_reduce_bn", 0, 0, {}]]]}, {"name": "zero_padding2d_32", "config": {"data_format": "channels_last", "trainable": true, "name": "zero_padding2d_32", "padding": [[4, 4], [4, 4]]}, "class_name": "ZeroPadding2D", "inbound_nodes": [[["activation_98", 0, 0, {}]]]}, {"name": "conv5_2_3x3", "config": {"kernel_regularizer": null, "bias_initializer": {"config": {}, "class_name": "Zeros"}, "name": "conv5_2_3x3", "bias_regularizer": null, "kernel_size": [3, 3], "filters": 512, "activity_regularizer": null, "use_bias": false, "bias_constraint": null, "dilation_rate": [4, 4], "kernel_constraint": null, "padding": "valid", "data_format": "channels_last", "trainable": true, "activation": "linear", "kernel_initializer": {"config": {"seed": null, "distribution": "uniform", "scale": 1.0, "mode": "fan_avg"}, "class_name": "VarianceScaling"}, "strides": [1, 1]}, "class_name": "Conv2D", "inbound_nodes": [[["zero_padding2d_32", 0, 0, {}]]]}, {"name": "conv5_2_3x3_bn", "config": {"center": true, "beta_regularizer": null, "axis": -1, "name": "conv5_2_3x3_bn", "epsilon": 1e-05, "scale": true, "gamma_constraint": null, "moving_variance_initializer": {"config": {}, "class_name": "Ones"}, "gamma_initializer": {"config": {}, "class_name": "Ones"}, "beta_constraint": null, "momentum": 0.95, "moving_mean_initializer": {"config": {}, "class_name": "Zeros"}, "beta_initializer": {"config": {}, "class_name": "Zeros"}, "trainable": true, "gamma_regularizer": null}, "class_name": "BatchNormalization", "inbound_nodes": [[["conv5_2_3x3", 0, 0, {}]]]}, {"name": "activation_99", "config": {"trainable": true, "name": "activation_99", "activation": "relu"}, "class_name": "Activation", "inbound_nodes": [[["conv5_2_3x3_bn", 0, 0, {}]]]}, {"name": "conv5_2_1x1_increase", "config": {"kernel_regularizer": null, "bias_initializer": {"config": {}, "class_name": "Zeros"}, "name": "conv5_2_1x1_increase", "bias_regularizer": null, "kernel_size": [1, 1], "filters": 2048, "activity_regularizer": null, "use_bias": false, "bias_constraint": null, "dilation_rate": [1, 1], "kernel_constraint": null, "padding": "valid", "data_format": "channels_last", "trainable": true, "activation": "linear", "kernel_initializer": {"config": {"seed": null, "distribution": "uniform", "scale": 1.0, "mode": "fan_avg"}, "class_name": "VarianceScaling"}, "strides": [1, 1]}, "class_name": "Conv2D", "inbound_nodes": [[["activation_99", 0, 0, {}]]]}, {"name": "conv5_2_1x1_increase_bn", "config": {"center": true, "beta_regularizer": null, "axis": -1, "name": "conv5_2_1x1_increase_bn", "epsilon": 1e-05, "scale": true, "gamma_constraint": null, "moving_variance_initializer": {"config": {}, "class_name": "Ones"}, "gamma_initializer": {"config": {}, "class_name": "Ones"}, "beta_constraint": null, "momentum": 0.95, "moving_mean_initializer": {"config": {}, "class_name": "Zeros"}, "beta_initializer": {"config": {}, "class_name": "Zeros"}, "trainable": true, "gamma_regularizer": null}, "class_name": "BatchNormalization", "inbound_nodes": [[["conv5_2_1x1_increase", 0, 0, {}]]]}, {"name": "add_32", "config": {"trainable": true, "name": "add_32"}, "class_name": "Add", "inbound_nodes": [[["conv5_2_1x1_increase_bn", 0, 0, {}], ["activation_97", 0, 0, {}]]]}, {"name": "activation_100", "config": {"trainable": true, "name": "activation_100", "activation": "relu"}, "class_name": "Activation", "inbound_nodes": [[["add_32", 0, 0, {}]]]}, {"name": "conv5_3_1x1_reduce", "config": {"kernel_regularizer": null, "bias_initializer": {"config": {}, "class_name": "Zeros"}, "name": "conv5_3_1x1_reduce", "bias_regularizer": null, "kernel_size": [1, 1], "filters": 512, "activity_regularizer": null, "use_bias": false, "bias_constraint": null, "dilation_rate": [1, 1], "kernel_constraint": null, "padding": "valid", "data_format": "channels_last", "trainable": true, "activation": "linear", "kernel_initializer": {"config": {"seed": null, "distribution": "uniform", "scale": 1.0, "mode": "fan_avg"}, "class_name": "VarianceScaling"}, "strides": [1, 1]}, "class_name": "Conv2D", "inbound_nodes": [[["activation_100", 0, 0, {}]]]}, {"name": "conv5_3_1x1_reduce_bn", "config": {"center": true, "beta_regularizer": null, "axis": -1, "name": "conv5_3_1x1_reduce_bn", "epsilon": 1e-05, "scale": true, "gamma_constraint": null, "moving_variance_initializer": {"config": {}, "class_name": "Ones"}, "gamma_initializer": {"config": {}, "class_name": "Ones"}, "beta_constraint": null, "momentum": 0.95, "moving_mean_initializer": {"config": {}, "class_name": "Zeros"}, "beta_initializer": {"config": {}, "class_name": "Zeros"}, "trainable": true, "gamma_regularizer": null}, "class_name": "BatchNormalization", "inbound_nodes": [[["conv5_3_1x1_reduce", 0, 0, {}]]]}, {"name": "activation_101", "config": {"trainable": true, "name": "activation_101", "activation": "relu"}, "class_name": "Activation", "inbound_nodes": [[["conv5_3_1x1_reduce_bn", 0, 0, {}]]]}, {"name": "zero_padding2d_33", "config": {"data_format": "channels_last", "trainable": true, "name": "zero_padding2d_33", "padding": [[4, 4], [4, 4]]}, "class_name": "ZeroPadding2D", "inbound_nodes": [[["activation_101", 0, 0, {}]]]}, {"name": "conv5_3_3x3", "config": {"kernel_regularizer": null, "bias_initializer": {"config": {}, "class_name": "Zeros"}, "name": "conv5_3_3x3", "bias_regularizer": null, "kernel_size": [3, 3], "filters": 512, "activity_regularizer": null, "use_bias": false, "bias_constraint": null, "dilation_rate": [4, 4], "kernel_constraint": null, "padding": "valid", "data_format": "channels_last", "trainable": true, "activation": "linear", "kernel_initializer": {"config": {"seed": null, "distribution": "uniform", "scale": 1.0, "mode": "fan_avg"}, "class_name": "VarianceScaling"}, "strides": [1, 1]}, "class_name": "Conv2D", "inbound_nodes": [[["zero_padding2d_33", 0, 0, {}]]]}, {"name": "conv5_3_3x3_bn", "config": {"center": true, "beta_regularizer": null, "axis": -1, "name": "conv5_3_3x3_bn", "epsilon": 1e-05, "scale": true, "gamma_constraint": null, "moving_variance_initializer": {"config": {}, "class_name": "Ones"}, "gamma_initializer": {"config": {}, "class_name": "Ones"}, "beta_constraint": null, "momentum": 0.95, "moving_mean_initializer": {"config": {}, "class_name": "Zeros"}, "beta_initializer": {"config": {}, "class_name": "Zeros"}, "trainable": true, "gamma_regularizer": null}, "class_name": "BatchNormalization", "inbound_nodes": [[["conv5_3_3x3", 0, 0, {}]]]}, {"name": "activation_102", "config": {"trainable": true, "name": "activation_102", "activation": "relu"}, "class_name": "Activation", "inbound_nodes": [[["conv5_3_3x3_bn", 0, 0, {}]]]}, {"name": "conv5_3_1x1_increase", "config": {"kernel_regularizer": null, "bias_initializer": {"config": {}, "class_name": "Zeros"}, "name": "conv5_3_1x1_increase", "bias_regularizer": null, "kernel_size": [1, 1], "filters": 2048, "activity_regularizer": null, "use_bias": false, "bias_constraint": null, "dilation_rate": [1, 1], "kernel_constraint": null, "padding": "valid", "data_format": "channels_last", "trainable": true, "activation": "linear", "kernel_initializer": {"config": {"seed": null, "distribution": "uniform", "scale": 1.0, "mode": "fan_avg"}, "class_name": "VarianceScaling"}, "strides": [1, 1]}, "class_name": "Conv2D", "inbound_nodes": [[["activation_102", 0, 0, {}]]]}, {"name": "conv5_3_1x1_increase_bn", "config": {"center": true, "beta_regularizer": null, "axis": -1, "name": "conv5_3_1x1_increase_bn", "epsilon": 1e-05, "scale": true, "gamma_constraint": null, "moving_variance_initializer": {"config": {}, "class_name": "Ones"}, "gamma_initializer": {"config": {}, "class_name": "Ones"}, "beta_constraint": null, "momentum": 0.95, "moving_mean_initializer": {"config": {}, "class_name": "Zeros"}, "beta_initializer": {"config": {}, "class_name": "Zeros"}, "trainable": true, "gamma_regularizer": null}, "class_name": "BatchNormalization", "inbound_nodes": [[["conv5_3_1x1_increase", 0, 0, {}]]]}, {"name": "add_33", "config": {"trainable": true, "name": "add_33"}, "class_name": "Add", "inbound_nodes": [[["conv5_3_1x1_increase_bn", 0, 0, {}], ["activation_100", 0, 0, {}]]]}, {"name": "activation_103", "config": {"trainable": true, "name": "activation_103", "activation": "relu"}, "class_name": "Activation", "inbound_nodes": [[["add_33", 0, 0, {}]]]}, {"name": "average_pooling2d_4", "config": {"pool_size": [10, 10], "name": "average_pooling2d_4", "padding": "valid", "data_format": "channels_last", "trainable": true, "strides": [10, 10]}, "class_name": "AveragePooling2D", "inbound_nodes": [[["activation_103", 0, 0, {}]]]}, {"name": "average_pooling2d_3", "config": {"pool_size": [20, 20], "name": "average_pooling2d_3", "padding": "valid", "data_format": "channels_last", "trainable": true, "strides": [20, 20]}, "class_name": "AveragePooling2D", "inbound_nodes": [[["activation_103", 0, 0, {}]]]}, {"name": "average_pooling2d_2", "config": {"pool_size": [30, 30], "name": "average_pooling2d_2", "padding": "valid", "data_format": "channels_last", "trainable": true, "strides": [30, 30]}, "class_name": "AveragePooling2D", "inbound_nodes": [[["activation_103", 0, 0, {}]]]}, {"name": "average_pooling2d_1", "config": {"pool_size": [60, 60], "name": "average_pooling2d_1", "padding": "valid", "data_format": "channels_last", "trainable": true, "strides": [60, 60]}, "class_name": "AveragePooling2D", "inbound_nodes": [[["activation_103", 0, 0, {}]]]}, {"name": "conv5_3_pool6_conv", "config": {"kernel_regularizer": null, "bias_initializer": {"config": {}, "class_name": "Zeros"}, "name": "conv5_3_pool6_conv", "bias_regularizer": null, "kernel_size": [1, 1], "filters": 512, "activity_regularizer": null, "use_bias": false, "bias_constraint": null, "dilation_rate": [1, 1], "kernel_constraint": null, "padding": "valid", "data_format": "channels_last", "trainable": true, "activation": "linear", "kernel_initializer": {"config": {"seed": null, "distribution": "uniform", "scale": 1.0, "mode": "fan_avg"}, "class_name": "VarianceScaling"}, "strides": [1, 1]}, "class_name": "Conv2D", "inbound_nodes": [[["average_pooling2d_4", 0, 0, {}]]]}, {"name": "conv5_3_pool3_conv", "config": {"kernel_regularizer": null, "bias_initializer": {"config": {}, "class_name": "Zeros"}, "name": "conv5_3_pool3_conv", "bias_regularizer": null, "kernel_size": [1, 1], "filters": 512, "activity_regularizer": null, "use_bias": false, "bias_constraint": null, "dilation_rate": [1, 1], "kernel_constraint": null, "padding": "valid", "data_format": "channels_last", "trainable": true, "activation": "linear", "kernel_initializer": {"config": {"seed": null, "distribution": "uniform", "scale": 1.0, "mode": "fan_avg"}, "class_name": "VarianceScaling"}, "strides": [1, 1]}, "class_name": "Conv2D", "inbound_nodes": [[["average_pooling2d_3", 0, 0, {}]]]}, {"name": "conv5_3_pool2_conv", "config": {"kernel_regularizer": null, "bias_initializer": {"config": {}, "class_name": "Zeros"}, "name": "conv5_3_pool2_conv", "bias_regularizer": null, "kernel_size": [1, 1], "filters": 512, "activity_regularizer": null, "use_bias": false, "bias_constraint": null, "dilation_rate": [1, 1], "kernel_constraint": null, "padding": "valid", "data_format": "channels_last", "trainable": true, "activation": "linear", "kernel_initializer": {"config": {"seed": null, "distribution": "uniform", "scale": 1.0, "mode": "fan_avg"}, "class_name": "VarianceScaling"}, "strides": [1, 1]}, "class_name": "Conv2D", "inbound_nodes": [[["average_pooling2d_2", 0, 0, {}]]]}, {"name": "conv5_3_pool1_conv", "config": {"kernel_regularizer": null, "bias_initializer": {"config": {}, "class_name": "Zeros"}, "name": "conv5_3_pool1_conv", "bias_regularizer": null, "kernel_size": [1, 1], "filters": 512, "activity_regularizer": null, "use_bias": false, "bias_constraint": null, "dilation_rate": [1, 1], "kernel_constraint": null, "padding": "valid", "data_format": "channels_last", "trainable": true, "activation": "linear", "kernel_initializer": {"config": {"seed": null, "distribution": "uniform", "scale": 1.0, "mode": "fan_avg"}, "class_name": "VarianceScaling"}, "strides": [1, 1]}, "class_name": "Conv2D", "inbound_nodes": [[["average_pooling2d_1", 0, 0, {}]]]}, {"name": "conv5_3_pool6_conv_bn", "config": {"center": true, "beta_regularizer": null, "axis": -1, "name": "conv5_3_pool6_conv_bn", "epsilon": 1e-05, "scale": true, "gamma_constraint": null, "moving_variance_initializer": {"config": {}, "class_name": "Ones"}, "gamma_initializer": {"config": {}, "class_name": "Ones"}, "beta_constraint": null, "momentum": 0.95, "moving_mean_initializer": {"config": {}, "class_name": "Zeros"}, "beta_initializer": {"config": {}, "class_name": "Zeros"}, "trainable": true, "gamma_regularizer": null}, "class_name": "BatchNormalization", "inbound_nodes": [[["conv5_3_pool6_conv", 0, 0, {}]]]}, {"name": "conv5_3_pool3_conv_bn", "config": {"center": true, "beta_regularizer": null, "axis": -1, "name": "conv5_3_pool3_conv_bn", "epsilon": 1e-05, "scale": true, "gamma_constraint": null, "moving_variance_initializer": {"config": {}, "class_name": "Ones"}, "gamma_initializer": {"config": {}, "class_name": "Ones"}, "beta_constraint": null, "momentum": 0.95, "moving_mean_initializer": {"config": {}, "class_name": "Zeros"}, "beta_initializer": {"config": {}, "class_name": "Zeros"}, "trainable": true, "gamma_regularizer": null}, "class_name": "BatchNormalization", "inbound_nodes": [[["conv5_3_pool3_conv", 0, 0, {}]]]}, {"name": "conv5_3_pool2_conv_bn", "config": {"center": true, "beta_regularizer": null, "axis": -1, "name": "conv5_3_pool2_conv_bn", "epsilon": 1e-05, "scale": true, "gamma_constraint": null, "moving_variance_initializer": {"config": {}, "class_name": "Ones"}, "gamma_initializer": {"config": {}, "class_name": "Ones"}, "beta_constraint": null, "momentum": 0.95, "moving_mean_initializer": {"config": {}, "class_name": "Zeros"}, "beta_initializer": {"config": {}, "class_name": "Zeros"}, "trainable": true, "gamma_regularizer": null}, "class_name": "BatchNormalization", "inbound_nodes": [[["conv5_3_pool2_conv", 0, 0, {}]]]}, {"name": "conv5_3_pool1_conv_bn", "config": {"center": true, "beta_regularizer": null, "axis": -1, "name": "conv5_3_pool1_conv_bn", "epsilon": 1e-05, "scale": true, "gamma_constraint": null, "moving_variance_initializer": {"config": {}, "class_name": "Ones"}, "gamma_initializer": {"config": {}, "class_name": "Ones"}, "beta_constraint": null, "momentum": 0.95, "moving_mean_initializer": {"config": {}, "class_name": "Zeros"}, "beta_initializer": {"config": {}, "class_name": "Zeros"}, "trainable": true, "gamma_regularizer": null}, "class_name": "BatchNormalization", "inbound_nodes": [[["conv5_3_pool1_conv", 0, 0, {}]]]}, {"name": "activation_107", "config": {"trainable": true, "name": "activation_107", "activation": "relu"}, "class_name": "Activation", "inbound_nodes": [[["conv5_3_pool6_conv_bn", 0, 0, {}]]]}, {"name": "activation_106", "config": {"trainable": true, "name": "activation_106", "activation": "relu"}, "class_name": "Activation", "inbound_nodes": [[["conv5_3_pool3_conv_bn", 0, 0, {}]]]}, {"name": "activation_105", "config": {"trainable": true, "name": "activation_105", "activation": "relu"}, "class_name": "Activation", "inbound_nodes": [[["conv5_3_pool2_conv_bn", 0, 0, {}]]]}, {"name": "activation_104", "config": {"trainable": true, "name": "activation_104", "activation": "relu"}, "class_name": "Activation", "inbound_nodes": [[["conv5_3_pool1_conv_bn", 0, 0, {}]]]}, {"name": "lambda_4", "config": {"name": "lambda_4", "output_shape": null, "function_type": "lambda", "output_shape_type": "raw", "trainable": true, "function": ["\u00e3\u0002\u0000\u0000\u0000\u0000\u0000\u0000\u0000\u0006\u0000\u0000\u0000\u0005\u0000\u0000\u0000C\u0000\u0000\u0000sA\u0000\u0000\u0000d\u0001\u0000d\u0002\u0000l\u0000\u0000m\u0001\u0000}\u0002\u0000\u0001|\u0001\u0000\\\u0002\u0000}\u0003\u0000}\u0004\u0000|\u0002\u0000j\u0002\u0000j\u0003\u0000|\u0000\u0000|\u0003\u0000|\u0004\u0000g\u0002\u0000d\u0003\u0000d\u0004\u0000\u0083\u0002\u0001}\u0005\u0000|\u0005\u0000S)\u0005N\u00e9\u0000\u0000\u0000\u0000)\u0001\u00da\u0002tf\u00da\ralign_cornersT)\u0004Z\rkeras.backendr\u0002\u0000\u0000\u0000\u00da\u0005image\u00da\rresize_images)\u0006\u00da\u0001x\u00da\u0005shapeZ\u0003ktfZ\nnew_heightZ\tnew_width\u00da\u0007resized\u00a9\u0000r\t\u0000\u0000\u0000\u00faQ/media/tatsch/DataSSD1/workspace/PSPNet-Keras-tensorflow/pspnet/layers_builder.py\u00da\u0006Interp\u0011\u0000\u0000\u0000s\n\u0000\u0000\u0000\u0000\u0001\u0010\u0001\f\u0001\u0018\u0001\t\u0001", null, null], "arguments": {"shape": [60, 60]}}, "class_name": "Lambda", "inbound_nodes": [[["activation_107", 0, 0, {}]]]}, {"name": "lambda_3", "config": {"name": "lambda_3", "output_shape": null, "function_type": "lambda", "output_shape_type": "raw", "trainable": true, "function": ["\u00e3\u0002\u0000\u0000\u0000\u0000\u0000\u0000\u0000\u0006\u0000\u0000\u0000\u0005\u0000\u0000\u0000C\u0000\u0000\u0000sA\u0000\u0000\u0000d\u0001\u0000d\u0002\u0000l\u0000\u0000m\u0001\u0000}\u0002\u0000\u0001|\u0001\u0000\\\u0002\u0000}\u0003\u0000}\u0004\u0000|\u0002\u0000j\u0002\u0000j\u0003\u0000|\u0000\u0000|\u0003\u0000|\u0004\u0000g\u0002\u0000d\u0003\u0000d\u0004\u0000\u0083\u0002\u0001}\u0005\u0000|\u0005\u0000S)\u0005N\u00e9\u0000\u0000\u0000\u0000)\u0001\u00da\u0002tf\u00da\ralign_cornersT)\u0004Z\rkeras.backendr\u0002\u0000\u0000\u0000\u00da\u0005image\u00da\rresize_images)\u0006\u00da\u0001x\u00da\u0005shapeZ\u0003ktfZ\nnew_heightZ\tnew_width\u00da\u0007resized\u00a9\u0000r\t\u0000\u0000\u0000\u00faQ/media/tatsch/DataSSD1/workspace/PSPNet-Keras-tensorflow/pspnet/layers_builder.py\u00da\u0006Interp\u0011\u0000\u0000\u0000s\n\u0000\u0000\u0000\u0000\u0001\u0010\u0001\f\u0001\u0018\u0001\t\u0001", null, null], "arguments": {"shape": [60, 60]}}, "class_name": "Lambda", "inbound_nodes": [[["activation_106", 0, 0, {}]]]}, {"name": "lambda_2", "config": {"name": "lambda_2", "output_shape": null, "function_type": "lambda", "output_shape_type": "raw", "trainable": true, "function": ["\u00e3\u0002\u0000\u0000\u0000\u0000\u0000\u0000\u0000\u0006\u0000\u0000\u0000\u0005\u0000\u0000\u0000C\u0000\u0000\u0000sA\u0000\u0000\u0000d\u0001\u0000d\u0002\u0000l\u0000\u0000m\u0001\u0000}\u0002\u0000\u0001|\u0001\u0000\\\u0002\u0000}\u0003\u0000}\u0004\u0000|\u0002\u0000j\u0002\u0000j\u0003\u0000|\u0000\u0000|\u0003\u0000|\u0004\u0000g\u0002\u0000d\u0003\u0000d\u0004\u0000\u0083\u0002\u0001}\u0005\u0000|\u0005\u0000S)\u0005N\u00e9\u0000\u0000\u0000\u0000)\u0001\u00da\u0002tf\u00da\ralign_cornersT)\u0004Z\rkeras.backendr\u0002\u0000\u0000\u0000\u00da\u0005image\u00da\rresize_images)\u0006\u00da\u0001x\u00da\u0005shapeZ\u0003ktfZ\nnew_heightZ\tnew_width\u00da\u0007resized\u00a9\u0000r\t\u0000\u0000\u0000\u00faQ/media/tatsch/DataSSD1/workspace/PSPNet-Keras-tensorflow/pspnet/layers_builder.py\u00da\u0006Interp\u0011\u0000\u0000\u0000s\n\u0000\u0000\u0000\u0000\u0001\u0010\u0001\f\u0001\u0018\u0001\t\u0001", null, null], "arguments": {"shape": [60, 60]}}, "class_name": "Lambda", "inbound_nodes": [[["activation_105", 0, 0, {}]]]}, {"name": "lambda_1", "config": {"name": "lambda_1", "output_shape": null, "function_type": "lambda", "output_shape_type": "raw", "trainable": true, "function": ["\u00e3\u0002\u0000\u0000\u0000\u0000\u0000\u0000\u0000\u0006\u0000\u0000\u0000\u0005\u0000\u0000\u0000C\u0000\u0000\u0000sA\u0000\u0000\u0000d\u0001\u0000d\u0002\u0000l\u0000\u0000m\u0001\u0000}\u0002\u0000\u0001|\u0001\u0000\\\u0002\u0000}\u0003\u0000}\u0004\u0000|\u0002\u0000j\u0002\u0000j\u0003\u0000|\u0000\u0000|\u0003\u0000|\u0004\u0000g\u0002\u0000d\u0003\u0000d\u0004\u0000\u0083\u0002\u0001}\u0005\u0000|\u0005\u0000S)\u0005N\u00e9\u0000\u0000\u0000\u0000)\u0001\u00da\u0002tf\u00da\ralign_cornersT)\u0004Z\rkeras.backendr\u0002\u0000\u0000\u0000\u00da\u0005image\u00da\rresize_images)\u0006\u00da\u0001x\u00da\u0005shapeZ\u0003ktfZ\nnew_heightZ\tnew_width\u00da\u0007resized\u00a9\u0000r\t\u0000\u0000\u0000\u00faQ/media/tatsch/DataSSD1/workspace/PSPNet-Keras-tensorflow/pspnet/layers_builder.py\u00da\u0006Interp\u0011\u0000\u0000\u0000s\n\u0000\u0000\u0000\u0000\u0001\u0010\u0001\f\u0001\u0018\u0001\t\u0001", null, null], "arguments": {"shape": [60, 60]}}, "class_name": "Lambda", "inbound_nodes": [[["activation_104", 0, 0, {}]]]}, {"name": "concatenate_1", "config": {"trainable": true, "name": "concatenate_1", "axis": -1}, "class_name": "Concatenate", "inbound_nodes": [[["activation_103", 0, 0, {}], ["lambda_4", 0, 0, {}], ["lambda_3", 0, 0, {}], ["lambda_2", 0, 0, {}], ["lambda_1", 0, 0, {}]]]}, {"name": "conv5_4", "config": {"kernel_regularizer": null, "bias_initializer": {"config": {}, "class_name": "Zeros"}, "name": "conv5_4", "bias_regularizer": null, "kernel_size": [3, 3], "filters": 512, "activity_regularizer": null, "use_bias": false, "bias_constraint": null, "dilation_rate": [1, 1], "kernel_constraint": null, "padding": "same", "data_format": "channels_last", "trainable": true, "activation": "linear", "kernel_initializer": {"config": {"seed": null, "distribution": "uniform", "scale": 1.0, "mode": "fan_avg"}, "class_name": "VarianceScaling"}, "strides": [1, 1]}, "class_name": "Conv2D", "inbound_nodes": [[["concatenate_1", 0, 0, {}]]]}, {"name": "conv5_4_bn", "config": {"center": true, "beta_regularizer": null, "axis": -1, "name": "conv5_4_bn", "epsilon": 1e-05, "scale": true, "gamma_constraint": null, "moving_variance_initializer": {"config": {}, "class_name": "Ones"}, "gamma_initializer": {"config": {}, "class_name": "Ones"}, "beta_constraint": null, "momentum": 0.95, "moving_mean_initializer": {"config": {}, "class_name": "Zeros"}, "beta_initializer": {"config": {}, "class_name": "Zeros"}, "trainable": true, "gamma_regularizer": null}, "class_name": "BatchNormalization", "inbound_nodes": [[["conv5_4", 0, 0, {}]]]}, {"name": "activation_108", "config": {"trainable": true, "name": "activation_108", "activation": "relu"}, "class_name": "Activation", "inbound_nodes": [[["conv5_4_bn", 0, 0, {}]]]}, {"name": "dropout_1", "config": {"noise_shape": null, "seed": null, "trainable": true, "name": "dropout_1", "rate": 0.1}, "class_name": "Dropout", "inbound_nodes": [[["activation_108", 0, 0, {}]]]}, {"name": "conv6", "config": {"kernel_regularizer": null, "bias_initializer": {"config": {}, "class_name": "Zeros"}, "name": "conv6", "bias_regularizer": null, "kernel_size": [1, 1], "filters": 21, "activity_regularizer": null, "use_bias": true, "bias_constraint": null, "dilation_rate": [1, 1], "kernel_constraint": null, "padding": "valid", "data_format": "channels_last", "trainable": true, "activation": "linear", "kernel_initializer": {"config": {"seed": null, "distribution": "uniform", "scale": 1.0, "mode": "fan_avg"}, "class_name": "VarianceScaling"}, "strides": [1, 1]}, "class_name": "Conv2D", "inbound_nodes": [[["dropout_1", 0, 0, {}]]]}, {"name": "lambda_5", "config": {"name": "lambda_5", "output_shape": null, "function_type": "lambda", "output_shape_type": "raw", "trainable": true, "function": ["\u00e3\u0002\u0000\u0000\u0000\u0000\u0000\u0000\u0000\u0006\u0000\u0000\u0000\u0005\u0000\u0000\u0000C\u0000\u0000\u0000sA\u0000\u0000\u0000d\u0001\u0000d\u0002\u0000l\u0000\u0000m\u0001\u0000}\u0002\u0000\u0001|\u0001\u0000\\\u0002\u0000}\u0003\u0000}\u0004\u0000|\u0002\u0000j\u0002\u0000j\u0003\u0000|\u0000\u0000|\u0003\u0000|\u0004\u0000g\u0002\u0000d\u0003\u0000d\u0004\u0000\u0083\u0002\u0001}\u0005\u0000|\u0005\u0000S)\u0005N\u00e9\u0000\u0000\u0000\u0000)\u0001\u00da\u0002tf\u00da\ralign_cornersT)\u0004Z\rkeras.backendr\u0002\u0000\u0000\u0000\u00da\u0005image\u00da\rresize_images)\u0006\u00da\u0001x\u00da\u0005shapeZ\u0003ktfZ\nnew_heightZ\tnew_width\u00da\u0007resized\u00a9\u0000r\t\u0000\u0000\u0000\u00faQ/media/tatsch/DataSSD1/workspace/PSPNet-Keras-tensorflow/pspnet/layers_builder.py\u00da\u0006Interp\u0011\u0000\u0000\u0000s\n\u0000\u0000\u0000\u0000\u0001\u0010\u0001\f\u0001\u0018\u0001\t\u0001", null, null], "arguments": {"shape": [473, 473]}}, "class_name": "Lambda", "inbound_nodes": [[["conv6", 0, 0, {}]]]}, {"name": "activation_109", "config": {"trainable": true, "name": "activation_109", "activation": "softmax"}, "class_name": "Activation", "inbound_nodes": [[["lambda_5", 0, 0, {}]]]}], "input_layers": [["input_1", 0, 0]], "output_layers": [["activation_109", 0, 0]]}, "class_name": "Model"}